GNN(
  (fc): ModuleList(
    (0): Linear(512, 256, bias=True)
    (1): Linear(256, 256, bias=True)
    (2): Linear(256, 256, bias=True)
  )
  (input_encoder): Sequential(
    (0): Linear(in_features=3, out_features=64, bias=True)
    (1): Identity()
  )
  (layers): ModuleList(
    (0): SAGEConv(64, 1024, aggr=mean)
    (1): LeakyReLU(negative_slope=0.01)
    (2): LayerNorm(1024, mode=graph)
    (3): SAGEConv(1024, 1024, aggr=mean)
    (4): LeakyReLU(negative_slope=0.01)
    (5): LayerNorm(1024, mode=graph)
    (6): SAGEConv(1024, 512, aggr=mean)
    (7): LeakyReLU(negative_slope=0.01)
    (8): LayerNorm(512, mode=graph)
    (9): SAGEConv(512, 512, aggr=mean)
    (10): LeakyReLU(negative_slope=0.01)
    (11): LayerNorm(512, mode=graph)
  )
  (pred_layer): Linear(256, 1, bias=True)
)
Number of samples used: 30379
Number of samples used: 30379, with label: sex
Original Distrubution: [11415, 10595, 2254, 2148, 1493, 1442]
GNN(
  (fc): ModuleList(
    (0): Linear(1024, 1024, bias=True)
    (1): Linear(1024, 512, bias=True)
    (2): Linear(512, 512, bias=True)
    (3): Linear(512, 256, bias=True)
    (4): Linear(256, 256, bias=True)
    (5): Linear(256, 256, bias=True)
  )
  (input_encoder): Sequential(
    (0): Linear(in_features=3, out_features=128, bias=True)
    (1): Identity()
  )
  (layers): ModuleList(
    (0): GATConv(128, 1024, heads=1)
    (1): Tanh()
  )
  (pred_layer): Linear(256, 1, bias=True)
)
Number of samples used: 30379
Number of samples used: 30379, with label: sex
Original Distrubution: [11415, 10595, 2254, 2148, 1493, 1442]
[[  0 143]
 [  0 113]]
[[  0 125]
 [  0 131]]
[[  0 113]
 [  0 143]]
[[  0 152]
 [  0 104]]
[[  0 144]
 [  0 112]]
[[  0 119]
 [  0 137]]
[[  0 123]
 [  0 133]]
[[  0 120]
 [  0 136]]
[[  0 140]
 [  0 116]]
[[  0 130]
 [  0 126]]
[[  0 127]
…
 [  0 119]]
[[ 0 64]
 [ 0 55]]
[[  0 118]
 [  0 138]]
[[  0 133]
 [  0 123]]
[[  0 135]
 [  0 121]]
[[  0 129]
 [  0 127]]
[[  0 134]
 [  0 122]]
[[  0 113]
 [  0 143]]
[[  0 125]
 [  0 131]]
[[  0 122]
 [  0 134]]
[[  0 135]
 [  0 121]]
[[  0 144]
 [  0 112]]
[[  0 144]
 [  0 112]]
[[ 0 61]
 [ 0 58]]
[[  0 124]
 [  0 132]]
[[  0 141]
 [  0 115]]
[[  0 110]
 [  0 146]]
[[  0 144]
 [  0 112]]
[[  0 114]
 [  0 142]]
[[  0 132]
 [  0 124]]
[[  0 132]
 [  0 124]]
[[  0 128]
 [  0 128]]
[[  0 125]
 [  0 131]]
[[  0 140]
 [  0 116]]
[[  0 135]
 [  0 121]]
[[ 0 68]
 [ 0 51]]
GNN(
  (fc): ModuleList(
    (0): Linear(1024, 1024, bias=True)
    (1): Linear(1024, 512, bias=True)
    (2): Linear(512, 512, bias=True)
    (3): Linear(512, 256, bias=True)
    (4): Linear(256, 256, bias=True)
    (5): Linear(256, 256, bias=True)
  )
  (input_encoder): Sequential(
    (0): Linear(in_features=3, out_features=32, bias=True)
    (1): Identity()
  )
  (layers): ModuleList(
    (0): SAGEConv(32, 1024, aggr=mean)
    (1): Tanh()
    (2): LayerNorm(1024, mode=graph)
  )
  (pred_layer): Linear(256, 1, bias=True)
)
Number of samples used: 30379
Number of samples used: 30379, with label: sex
Original Distrubution: [11415, 10595, 2254, 2148, 1493, 1442]
[[128   0]
 [128   0]]
[[129   0]
 [127   0]]
[[134   0]
 [122   0]]
[[130   0]
 [126   0]]
[[134   0]
 [122   0]]
[[123   0]
 [133   0]]
[[133   0]
 [123   0]]
[[124   0]
 [132   0]]
[[129   0]
 [127   0]]
[[141   0]
 [115   0]]
[[129   0]
…
 [ 56  67]]
[[64  1]
 [22 32]]
[[133   0]
 [ 60  63]]
[[127   0]
 [ 51  78]]
[[138   1]
 [ 58  59]]
[[140   0]
 [ 48  68]]
[[123   1]
 [ 67  65]]
[[132   1]
 [ 61  62]]
[[120   0]
 [ 58  78]]
[[137   0]
 [ 63  56]]
[[128   0]
 [ 67  61]]
[[116   1]
 [ 60  79]]
[[128   0]
 [ 59  69]]
[[67  0]
 [23 29]]
[[132   0]
 [ 58  66]]
[[139   0]
 [ 57  60]]
[[119   0]
 [ 67  70]]
[[116   0]
 [ 64  76]]
[[136   0]
 [ 63  57]]
[[130   1]
 [ 62  63]]
[[125   1]
 [ 62  68]]
[[131   0]
 [ 62  63]]
[[134   0]
 [ 61  61]]
[[138   0]
 [ 57  61]]
[[129   0]
 [ 63  64]]
[[62  0]
 [28 29]]
GNN(
  (fc): ModuleList(
    (0): Linear(1024, 1024, bias=True)
    (1): Linear(1024, 512, bias=True)
    (2): Linear(512, 512, bias=True)
    (3): Linear(512, 256, bias=True)
    (4): Linear(256, 256, bias=True)
    (5): Linear(256, 256, bias=True)
  )
  (input_encoder): Sequential(
    (0): Linear(in_features=3, out_features=16, bias=True)
    (1): Identity()
  )
  (layers): ModuleList(
    (0): GCNConv(16, 1024)
    (1): LeakyReLU(negative_slope=0.01)
    (2): LayerNorm(1024, mode=graph)
  )
  (pred_layer): Linear(256, 1, bias=True)
)
Number of samples used: 30379
Number of samples used: 30379, with label: sex
Original Distrubution: [11415, 10595, 2254, 2148, 1493, 1442]
[[130   0]
 [126   0]]
[[111   0]
 [145   0]]
[[139   0]
 [117   0]]
[[128   0]
 [128   0]]
[[141   0]
 [115   0]]
[[125   0]
 [131   0]]
[[133   0]
 [123   0]]
[[141   0]
 [115   0]]
[[132   0]
 [124   0]]
[[132   0]
 [124   0]]
[[121   0]
…
 [118   0]]
[[64  0]
 [55  0]]
[[135   0]
 [121   0]]
[[125   0]
 [131   0]]
[[122   0]
 [134   0]]
[[125   0]
 [131   0]]
[[136   0]
 [120   0]]
[[147   0]
 [109   0]]
[[128   0]
 [128   0]]
[[137   0]
 [119   0]]
[[130   0]
 [126   0]]
[[122   0]
 [134   0]]
[[123   0]
 [133   0]]
[[63  0]
 [56  0]]
[[143   0]
 [113   0]]
[[147   0]
 [109   0]]
[[123   0]
 [133   0]]
[[139   0]
 [117   0]]
[[132   0]
 [124   0]]
[[133   0]
 [123   0]]
[[133   0]
 [123   0]]
[[118   0]
 [138   0]]
[[132   0]
 [124   0]]
[[125   0]
 [131   0]]
[[111   0]
 [145   0]]
[[57  0]
 [62  0]]
GNN(
  (fc): ModuleList(
    (0): Linear(1024, 512, bias=True)
    (1): Linear(512, 512, bias=True)
    (2): Linear(512, 256, bias=True)
    (3): Linear(256, 256, bias=True)
    (4): Linear(256, 256, bias=True)
  )
  (layers): ModuleList(
    (0): SAGEConv(3, 1024, aggr=mean)
    (1): LeakyReLU(negative_slope=0.01)
    (2): LayerNorm(1024, mode=graph)
    (3): SAGEConv(1024, 1024, aggr=mean)
    (4): LeakyReLU(negative_slope=0.01)
    (5): LayerNorm(1024, mode=graph)
  )
  (pred_layer): Linear(256, 1, bias=True)
)
Number of samples used: 30379
Number of samples used: 30379, with label: sex
Original Distrubution: [11415, 10595, 2254, 2148, 1493, 1442]
[[39  0]
 [ 0 25]]
[[33  0]
 [ 0 31]]
[[30  0]
 [ 0 34]]
[[33  0]
 [ 0 31]]
[[33  0]
 [ 1 30]]
[[31  0]
 [ 0 33]]
[[37  0]
 [ 0 27]]
[[30  0]
 [ 0 34]]
[[37  1]
 [ 0 26]]
[[40  1]
 [ 1 22]]
[[26  0]
 [ 1 37]]
[[34  0]
 [ 0 30]]
[[37  0]
 [ 0 27]]
…
