…
Currently doing subject 3896437
Currently doing subject 4558764
Currently doing subject 3476721
Currently doing subject 1491680
Currently doing subject 5565213
Currently doing subject 3064966
Currently doing subject 3513402
Currently doing subject 3295255
Currently doing subject 3878173
Currently doing subject 4167291
Currently doing subject 1600853
Currently doing subject 2784621
Currently doing subject 1363048
Currently doing subject 3544692
Currently doing subject 3946339
Currently doing subject 5353975
Currently doing subject 3355631
Building Model
Starting Training
GNN(
  (fc): ModuleList(
    (0): Linear(256, 256, bias=True)
    (1): Linear(256, 128, bias=True)
    (2): Linear(128, 64, bias=True)
  )
  (input_encoder): Sequential(
    (0): Linear(in_features=3, out_features=4, bias=True)
    (1): Identity()
  )
  (layers): ModuleList(
    (0): GCNConv(4, 512)
    (1): ReLU()
    (2): LayerNorm(512, mode=graph)
    (3): GCNConv(512, 256)
    (4): ReLU()
    (5): LayerNorm(256, mode=graph)
  )
  (pred_layer): Linear(64, 1, bias=True)
)
../../../../../../vol/aimspace/users/wyo/registered_meshes/original_meshes/
loading IDs
loading Features
Filtering IDs
Loading Data
Data Already Done!
Data Already Done!
Data Already Done!
Building Model
Starting Training
GNN(
  (fc): ModuleList(
    (0): Linear(256, 128, bias=True)
    (1): Linear(128, 64, bias=True)
  )
  (layers): ModuleList(
    (0): SAGEConv(3, 512, aggr=mean)
    (1): Tanh()
    (2): LayerNorm(512, mode=graph)
    (3): SAGEConv(512, 256, aggr=mean)
    (4): Tanh()
    (5): LayerNorm(256, mode=graph)
    (6): SAGEConv(256, 256, aggr=mean)
    (7): Tanh()
    (8): LayerNorm(256, mode=graph)
  )
  (pred_layer): Linear(64, 1, bias=True)
)
../../../../../../vol/aimspace/users/wyo/registered_meshes/original_meshes/
loading IDs
loading Features
Filtering IDs
Loading Data
Data Already Done!
Data Already Done!
Data Already Done!
Building Model
Starting Training
GNN(
  (fc): ModuleList(
    (0): Linear(256, 128, bias=True)
    (1): Linear(128, 64, bias=True)
  )
  (layers): ModuleList(
    (0): GATConv(3, 512, heads=1)
    (1): Tanh()
    (2): GATConv(512, 256, heads=1)
    (3): Tanh()
    (4): GATConv(256, 256, heads=1)
    (5): Tanh()
  )
  (pred_layer): Linear(64, 1, bias=True)
)
../../../../../../vol/aimspace/users/wyo/registered_meshes/original_meshes/
loading IDs
loading Features
Filtering IDs
Loading Data
Data Already Done!
Data Already Done!
Data Already Done!
Building Model
Starting Training
GNN(
  (fc): ModuleList(
    (0): Linear(128, 64, bias=True)
  )
  (input_encoder): Sequential(
    (0): Linear(in_features=3, out_features=128, bias=True)
    (1): Identity()
  )
  (layers): ModuleList(
    (0): GATConv(128, 512, heads=1)
    (1): Tanh()
    (2): LayerNorm(512, mode=graph)
    (3): GATConv(512, 256, heads=1)
    (4): Tanh()
    (5): LayerNorm(256, mode=graph)
    (6): GATConv(256, 256, heads=1)
    (7): Tanh()
    (8): LayerNorm(256, mode=graph)
    (9): GATConv(256, 128, heads=1)
    (10): Tanh()
    (11): LayerNorm(128, mode=graph)
  )
  (pred_layer): Linear(64, 1, bias=True)
)
../../../../../../vol/aimspace/users/wyo/registered_meshes/original_meshes/
loading IDs
loading Features
Filtering IDs
Loading Data
Data Already Done!
Data Already Done!
Data Already Done!
Building Model
Starting Training
GNN(
  (fc): ModuleList(
    (0): Linear(256, 128, bias=True)
    (1): Linear(128, 64, bias=True)
  )
  (input_encoder): Sequential(
    (0): Linear(in_features=3, out_features=16, bias=True)
    (1): Identity()
  )
  (layers): ModuleList(
    (0): SAGEConv(16, 512, aggr=mean)
    (1): ELU(alpha=1.0)
    (2): SAGEConv(512, 256, aggr=mean)
    (3): ELU(alpha=1.0)
    (4): SAGEConv(256, 256, aggr=mean)
    (5): ELU(alpha=1.0)
  )
  (pred_layer): Linear(64, 1, bias=True)
)
../../../../../../vol/aimspace/users/wyo/registered_meshes/original_meshes/
loading IDs
loading Features
Filtering IDs
Loading Data
Data Already Done!
Data Already Done!
Data Already Done!
Building Model
Starting Training
