…
[[34  0]
 [30  0]]
[[13  0]
 [17  0]]
[[ 0 34]
 [ 0 30]]
[[ 0 13]
 [ 0 17]]
[[33  0]
 [31  0]]
[[14  0]
 [16  0]]
[[31  0]
 [33  0]]
[[16  0]
 [14  0]]
[[30  0]
 [34  0]]
[[17  0]
 [13  0]]
[[36  0]
 [28  0]]
[[11  0]
 [19  0]]
[[ 0 31]
 [ 0 33]]
[[ 0 16]
 [ 0 14]]
[[ 0 32]
 [ 0 32]]
[[ 0 15]
 [ 0 15]]
[[ 0 28]
 [ 0 36]]
[[ 0 19]
 [ 0 11]]
[[ 0 28]
 [ 0 36]]
[[ 0 19]
 [ 0 11]]
[[ 0 32]
 [ 0 32]]
[[ 0 15]
 [ 0 15]]
[[32  0]
 [32  0]]
[[15  0]
 [15  0]]
[[33  0]
 [31  0]]
[[14  0]
 [16  0]]
[[ 0 28]
 [ 0 36]]
[[ 0 19]
 [ 0 11]]
[[ 0 35]
 [ 0 29]]
[[ 0 12]
 [ 0 18]]
GNN(
  (fc): ModuleList(
    (0): Linear(512, 512, bias=True)
    (1): Linear(512, 256, bias=True)
    (2): Linear(256, 256, bias=True)
    (3): Linear(256, 256, bias=True)
  )
  (input_encoder): Sequential(
    (0): Linear(in_features=3, out_features=64, bias=True)
    (1): Identity()
  )
  (layers): ModuleList(
    (0): GCNConv(64, 1024)
    (1): LeakyReLU(negative_slope=0.01)
    (2): LayerNorm(1024, mode=graph)
    (3): GCNConv(1024, 1024)
    (4): LeakyReLU(negative_slope=0.01)
    (5): LayerNorm(1024, mode=graph)
    (6): GCNConv(1024, 512)
    (7): LeakyReLU(negative_slope=0.01)
    (8): LayerNorm(512, mode=graph)
  )
  (pred_layer): Linear(256, 1, bias=True)
)
Number of samples used: 30379
Number of samples used: 30379, with label: disease
Original Distrubution: [21657, 354, 4330, 72, 2888, 47]
Used Distrubution: [354, 354, 72, 72, 47, 47]
[[47  0]
 [47  0]]
[[ 0 47]
 [ 0 47]]
[[ 0 47]
 [ 0 47]]
[[ 0 47]
 [ 0 47]]
[[ 1 46]
 [ 1 46]]
[[ 0 47]
 [ 0 47]]
[[ 0 47]
 [ 0 47]]
[[47  0]
 [47  0]]
[[ 0 47]
 [ 0 47]]
[[ 0 47]
 [ 0 47]]
[[47  0]
 [47  0]]
[[ 0 47]
 [ 0 47]]
[[47  0]
 [47  0]]
[[47  0]
 [47  0]]
[[47  0]
 [47  0]]
[[47  0]
 [47  0]]
[[47  0]
 [47  0]]
[[47  0]
 [47  0]]
[[ 0 47]
 [ 0 47]]
[[ 0 47]
 [ 0 47]]
[[ 0 47]
 [ 0 47]]
[[47  0]
 [47  0]]
[[47  0]
 [47  0]]
[[ 0 47]
 [ 0 47]]
[[ 0 47]
 [ 0 47]]
[[ 0 47]
 [ 0 47]]
[[47  0]
 [47  0]]
[[47  0]
 [47  0]]
[[47  0]
 [47  0]]
[[ 0 47]
 [ 0 47]]
GNN(
  (fc): ModuleList(
    (0): Linear(256, 256, bias=True)
  )
  (layers): ModuleList(
    (0): GCNConv(3, 1024)
    (1): ELU(alpha=1.0)
    (2): LayerNorm(1024, mode=graph)
    (3): GCNConv(1024, 1024)
    (4): ELU(alpha=1.0)
    (5): LayerNorm(1024, mode=graph)
    (6): GCNConv(1024, 512)
    (7): ELU(alpha=1.0)
    (8): LayerNorm(512, mode=graph)
    (9): GCNConv(512, 512)
    (10): ELU(alpha=1.0)
    (11): LayerNorm(512, mode=graph)
    (12): GCNConv(512, 256)
    (13): ELU(alpha=1.0)
    (14): LayerNorm(256, mode=graph)
    (15): GCNConv(256, 256)
    (16): ELU(alpha=1.0)
    (17): LayerNorm(256, mode=graph)
  )
  (pred_layer): Linear(256, 1, bias=True)
)
Number of samples used: 30379
Number of samples used: 30379, with label: disease
Original Distrubution: [21657, 354, 4330, 72, 2888, 47]
Used Distrubution: [354, 354, 72, 72, 47, 47]
[[ 0 30]
 [ 0 34]]
[[ 0 17]
 [ 0 13]]
[[ 0 32]
 [ 0 32]]
[[ 0 15]
 [ 0 15]]
[[32  0]
 [32  0]]
[[15  0]
 [15  0]]
[[31  0]
 [33  0]]
[[16  0]
 [14  0]]
[[35  0]
 [29  0]]
[[12  0]
 [18  0]]
[[ 0 31]
…
[[26  4]
 [27  7]]
[[15  2]
 [12  1]]
[[ 0 33]
 [ 0 31]]
[[ 0 14]
 [ 0 16]]
[[ 0 33]
 [ 0 31]]
[[ 0 14]
 [ 0 16]]
[[ 0 31]
 [ 0 33]]
[[ 0 16]
 [ 0 14]]
[[ 0 34]
 [ 0 30]]
[[ 0 13]
 [ 0 17]]
[[30  0]
 [34  0]]
[[17  0]
 [13  0]]
[[ 0 33]
 [ 0 31]]
[[ 0 14]
 [ 0 16]]
[[30  0]
 [34  0]]
[[17  0]
 [13  0]]
[[34  0]
 [30  0]]
[[13  0]
 [17  0]]
[[32  0]
 [32  0]]
[[15  0]
 [15  0]]
[[31  0]
 [33  0]]
[[16  0]
 [14  0]]
[[37  0]
 [27  0]]
[[10  0]
 [20  0]]
[[ 0 37]
 [ 0 27]]
[[ 0 10]
 [ 0 20]]
[[23 11]
 [15 15]]
[[ 6  7]
 [11  6]]
[[28  3]
 [27  6]]
[[13  3]
 [12  2]]
GNN(
  (fc): ModuleList(
    (0): Linear(1024, 512, bias=True)
    (1): Linear(512, 512, bias=True)
    (2): Linear(512, 256, bias=True)
    (3): Linear(256, 256, bias=True)
    (4): Linear(256, 256, bias=True)
  )
  (input_encoder): Sequential(
    (0): Linear(in_features=3, out_features=1, bias=True)
    (1): Identity()
  )
  (layers): ModuleList(
    (0): SAGEConv(1, 1024, aggr=mean)
    (1): ELU(alpha=1.0)
    (2): LayerNorm(1024, mode=graph)
    (3): SAGEConv(1024, 1024, aggr=mean)
    (4): ELU(alpha=1.0)
    (5): LayerNorm(1024, mode=graph)
  )
  (pred_layer): Linear(256, 1, bias=True)
)
Number of samples used: 30379
Number of samples used: 30379, with label: disease
Original Distrubution: [21657, 354, 4330, 72, 2888, 47]
Used Distrubution: [354, 354, 72, 72, 47, 47]
[[47  0]
 [47  0]]
[[ 0 47]
 [ 0 47]]
[[47  0]
 [47  0]]
[[47  0]
 [47  0]]
[[47  0]
 [47  0]]
[[ 0 47]
 [ 0 47]]
[[ 0 47]
 [ 0 47]]
[[47  0]
 [47  0]]
[[47  0]
 [47  0]]
[[47  0]
 [47  0]]
[[ 0 47]
 [ 0 47]]
[[ 0 47]
 [ 0 47]]
[[ 0 47]
 [ 0 47]]
[[ 0 47]
 [ 1 46]]
[[47  0]
 [47  0]]
[[47  0]
 [47  0]]
[[47  0]
 [47  0]]
[[ 1 46]
 [ 3 44]]
[[ 0 47]
 [ 0 47]]
[[ 0 47]
 [ 0 47]]
[[47  0]
 [47  0]]
[[47  0]
 [47  0]]
[[47  0]
 [47  0]]
[[47  0]
 [47  0]]
[[47  0]
 [47  0]]
[[47  0]
 [47  0]]
[[47  0]
 [47  0]]
[[47  0]
 [47  0]]
[[47  0]
 [47  0]]
[[47  0]
 [47  0]]
GNN(
  (fc): ModuleList(
    (0): Linear(1024, 1024, bias=True)
    (1): Linear(1024, 512, bias=True)
    (2): Linear(512, 512, bias=True)
    (3): Linear(512, 256, bias=True)
    (4): Linear(256, 256, bias=True)
    (5): Linear(256, 256, bias=True)
  )
  (input_encoder): Sequential(
    (0): Linear(in_features=3, out_features=4, bias=True)
    (1): Identity()
  )
  (layers): ModuleList(
    (0): SAGEConv(4, 1024, aggr=mean)
    (1): ELU(alpha=1.0)
  )
  (pred_layer): Linear(256, 1, bias=True)
)
Number of samples used: 30379
Number of samples used: 30379, with label: disease
Original Distrubution: [21657, 354, 4330, 72, 2888, 47]
Used Distrubution: [354, 354, 72, 72, 47, 47]
[[47  0]
 [47  0]]
[[47  0]
 [47  0]]
[[47  0]
 [47  0]]
[[45  2]
 [42  5]]
[[ 0 47]
 [ 0 47]]
[[ 0 47]
 [ 0 47]]
[[ 0 47]
 [ 0 47]]
[[ 0 47]
 [ 0 47]]
[[ 0 47]
 [ 0 47]]
[[ 0 47]
 [ 0 47]]
[[ 0 47]
 [ 0 47]]
[[ 0 47]
 [ 0 47]]
[[47  0]
 [47  0]]
[[47  0]
 [47  0]]
[[ 0 47]
 [ 0 47]]
[[ 0 47]
 [ 0 47]]
[[ 0 47]
 [ 0 47]]
[[ 0 47]
 [ 0 47]]
[[ 0 47]
 [ 0 47]]
[[ 0 47]
 [ 0 47]]
[[ 0 47]
 [ 0 47]]
[[ 0 47]
 [ 0 47]]
[[ 0 47]
 [ 0 47]]
[[ 0 47]
 [ 0 47]]
[[ 0 47]
 [ 0 47]]
[[ 0 47]
 [ 0 47]]
[[ 0 47]
 [ 0 47]]
[[ 0 47]
 [ 0 47]]
[[ 0 47]
 [ 0 47]]
[[ 0 47]
 [ 0 47]]
GNN(
  (fc): ModuleList(
    (0): Linear(512, 512, bias=True)
    (1): Linear(512, 256, bias=True)
    (2): Linear(256, 256, bias=True)
    (3): Linear(256, 256, bias=True)
  )
  (layers): ModuleList(
    (0): SAGEConv(3, 1024, aggr=mean)
    (1): ELU(alpha=1.0)
    (2): SAGEConv(1024, 1024, aggr=mean)
    (3): ELU(alpha=1.0)
    (4): SAGEConv(1024, 512, aggr=mean)
    (5): ELU(alpha=1.0)
  )
  (pred_layer): Linear(256, 1, bias=True)
)
Number of samples used: 30379
Number of samples used: 30379, with label: disease
Original Distrubution: [21657, 354, 4330, 72, 2888, 47]
Used Distrubution: [354, 354, 72, 72, 47, 47]
[[ 0 32]
 [ 0 32]]
[[ 0 15]
 [ 0 15]]
[[ 0 30]
 [ 0 34]]
[[ 0 17]
 [ 0 13]]
[[ 0 36]
 [ 0 28]]
[[ 0 11]
 [ 0 19]]
[[28  0]
 [36  0]]
[[19  0]
 [11  0]]
[[ 0 32]
 [ 0 32]]
[[ 0 15]
 [ 0 15]]
[[ 0 33]
…
[[30  0]
 [34  0]]
[[17  0]
 [13  0]]
[[34  0]
 [30  0]]
[[13  0]
 [17  0]]
[[36  0]
 [28  0]]
[[11  0]
 [19  0]]
[[34  0]
 [30  0]]
[[13  0]
 [17  0]]
[[28  0]
 [36  0]]
[[19  0]
 [11  0]]
[[35  0]
 [29  0]]
[[12  0]
 [18  0]]
[[ 8 22]
 [ 9 25]]
[[ 2 15]
 [ 5  8]]
[[ 0 35]
 [ 0 29]]
[[ 0 12]
 [ 0 18]]
[[ 0 28]
 [ 0 36]]
[[ 0 19]
 [ 0 11]]
[[ 0 32]
 [ 0 32]]
[[ 0 15]
 [ 0 15]]
[[ 0 32]
 [ 0 32]]
[[ 0 15]
 [ 0 15]]
[[ 0 29]
 [ 0 35]]
[[ 0 18]
 [ 0 12]]
[[ 0 35]
 [ 0 29]]
[[ 0 12]
 [ 0 18]]
[[ 0 35]
 [ 0 29]]
[[ 0 12]
 [ 0 18]]
[[ 0 35]
 [ 0 29]]
[[ 0 12]
 [ 0 18]]
GNN(
  (fc): ModuleList(
    (0): Linear(1024, 1024, bias=True)
    (1): Linear(1024, 512, bias=True)
    (2): Linear(512, 512, bias=True)
    (3): Linear(512, 256, bias=True)
    (4): Linear(256, 256, bias=True)
    (5): Linear(256, 256, bias=True)
  )
  (input_encoder): Sequential(
    (0): Linear(in_features=3, out_features=256, bias=True)
    (1): Identity()
  )
  (layers): ModuleList(
    (0): GATConv(256, 1024, heads=1)
    (1): LeakyReLU(negative_slope=0.01)
    (2): LayerNorm(1024, mode=graph)
  )
  (pred_layer): Linear(256, 1, bias=True)
)
Number of samples used: 30379
Number of samples used: 30379, with label: disease
Original Distrubution: [21657, 354, 4330, 72, 2888, 47]
Used Distrubution: [354, 354, 72, 72, 47, 47]
[[ 0 47]
 [ 0 47]]
[[ 0 47]
 [ 0 47]]
[[ 0 47]
 [ 0 47]]
[[ 0 47]
 [ 0 47]]
[[ 0 47]
 [ 0 47]]
[[ 0 47]
 [ 0 47]]
[[ 0 47]
 [ 0 47]]
[[ 0 47]
 [ 0 47]]
[[ 0 47]
 [ 0 47]]
[[ 0 47]
 [ 0 47]]
[[ 0 47]
 [ 0 47]]
[[ 0 47]
 [ 0 47]]
[[ 0 47]
 [ 0 47]]
[[ 0 47]
 [ 0 47]]
[[ 0 47]
 [ 0 47]]
[[ 0 47]
 [ 0 47]]
[[ 0 47]
 [ 0 47]]
[[ 0 47]
 [ 0 47]]
[[ 0 47]
 [ 0 47]]
[[ 0 47]
 [ 0 47]]
[[ 0 47]
 [ 0 47]]
[[ 0 47]
 [ 0 47]]
[[ 0 47]
 [ 0 47]]
[[ 0 47]
 [ 0 47]]
[[ 0 47]
 [ 0 47]]
[[ 0 47]
 [ 0 47]]
[[ 0 47]
 [ 0 47]]
[[ 0 47]
 [ 0 47]]
[[ 0 47]
 [ 0 47]]
[[ 0 47]
 [ 0 47]]
GNN(
  (fc): ModuleList(
    (0): Linear(512, 512, bias=True)
    (1): Linear(512, 256, bias=True)
    (2): Linear(256, 256, bias=True)
    (3): Linear(256, 256, bias=True)
  )
  (layers): ModuleList(
    (0): SAGEConv(3, 1024, aggr=mean)
    (1): LeakyReLU(negative_slope=0.01)
    (2): SAGEConv(1024, 1024, aggr=mean)
    (3): LeakyReLU(negative_slope=0.01)
    (4): SAGEConv(1024, 512, aggr=mean)
    (5): LeakyReLU(negative_slope=0.01)
  )
  (pred_layer): Linear(256, 1, bias=True)
)
Number of samples used: 30379
Number of samples used: 30379, with label: disease
Original Distrubution: [21657, 354, 4330, 72, 2888, 47]
Used Distrubution: [354, 354, 72, 72, 47, 47]
[[47  0]
 [47  0]]
[[ 0 47]
 [ 0 47]]
[[ 0 47]
 [ 0 47]]
[[ 0 47]
 [ 0 47]]
[[ 0 47]
 [ 0 47]]
[[ 0 47]
 [ 0 47]]
[[47  0]
 [47  0]]
[[47  0]
 [47  0]]
[[47  0]
 [47  0]]
[[47  0]
 [47  0]]
[[ 0 47]
 [ 0 47]]
[[ 0 47]
 [ 0 47]]
[[ 0 47]
 [ 0 47]]
[[ 0 47]
 [ 0 47]]
[[47  0]
 [44  3]]
[[47  0]
 [45  2]]
[[47  0]
 [47  0]]
[[46  1]
 [43  4]]
[[ 9 38]
 [13 34]]
[[ 0 47]
 [ 1 46]]
[[22 25]
 [26 21]]
[[11 36]
 [17 30]]
[[31 16]
 [30 17]]
[[38  9]
 [37 10]]
[[ 6 41]
 [10 37]]
[[38  9]
 [38  9]]
[[ 2 45]
 [ 2 45]]
[[43  4]
 [41  6]]
[[33 14]
 [30 17]]
[[37 10]
 [35 12]]
GNN(
  (fc): ModuleList(
    (0): Linear(1024, 512, bias=True)
    (1): Linear(512, 512, bias=True)
    (2): Linear(512, 256, bias=True)
    (3): Linear(256, 256, bias=True)
    (4): Linear(256, 256, bias=True)
  )
  (layers): ModuleList(
    (0): SAGEConv(3, 1024, aggr=mean)
    (1): LeakyReLU(negative_slope=0.01)
    (2): LayerNorm(1024, mode=graph)
    (3): SAGEConv(1024, 1024, aggr=mean)
    (4): LeakyReLU(negative_slope=0.01)
    (5): LayerNorm(1024, mode=graph)
  )
  (pred_layer): Linear(256, 1, bias=True)
)
Number of samples used: 30379
Number of samples used: 30379, with label: disease
Original Distrubution: [21657, 354, 4330, 72, 2888, 47]
Used Distrubution: [354, 354, 72, 72, 47, 47]
[[ 0 47]
 [ 0 47]]
[[47  0]
 [47  0]]
[[47  0]
 [47  0]]
[[ 2 45]
 [ 0 47]]
[[ 0 47]
 [ 0 47]]
[[ 0 47]
 [ 0 47]]
[[43  4]
 [39  8]]
[[19 28]
 [23 24]]
[[46  1]
 [45  2]]
[[31 16]
 [32 15]]
[[28 19]
 [30 17]]
[[47  0]
 [47  0]]
[[47  0]
 [46  1]]
[[46  1]
 [46  1]]
[[47  0]
 [46  1]]
[[47  0]
 [47  0]]
[[47  0]
 [47  0]]
[[46  1]
 [46  1]]
[[47  0]
 [46  1]]
[[47  0]
 [46  1]]
[[47  0]
 [47  0]]
[[46  1]
 [46  1]]
[[47  0]
 [46  1]]
[[47  0]
 [47  0]]
[[46  1]
 [42  5]]
[[47  0]
 [46  1]]
[[47  0]
 [46  1]]
[[47  0]
 [46  1]]
[[47  0]
 [46  1]]
[[46  1]
 [45  2]]
GNN(
  (fc): ModuleList(
    (0): Linear(512, 256, bias=True)
    (1): Linear(256, 256, bias=True)
    (2): Linear(256, 256, bias=True)
  )
  (layers): ModuleList(
    (0): SAGEConv(3, 1024, aggr=mean)
    (1): Tanh()
    (2): LayerNorm(1024, mode=graph)
    (3): SAGEConv(1024, 1024, aggr=mean)
    (4): Tanh()
    (5): LayerNorm(1024, mode=graph)
    (6): SAGEConv(1024, 512, aggr=mean)
    (7): Tanh()
    (8): LayerNorm(512, mode=graph)
    (9): SAGEConv(512, 512, aggr=mean)
    (10): Tanh()
    (11): LayerNorm(512, mode=graph)
  )
  (pred_layer): Linear(256, 1, bias=True)
)
Number of samples used: 30379
Number of samples used: 30379, with label: disease
Original Distrubution: [21657, 354, 4330, 72, 2888, 47]
Used Distrubution: [354, 354, 72, 72, 47, 47]
[[ 2 45]
 [ 1 46]]
[[28 19]
 [30 17]]
[[47  0]
 [47  0]]
[[47  0]
 [47  0]]
[[47  0]
 [47  0]]
[[47  0]
 [47  0]]
[[47  0]
 [47  0]]
[[47  0]
 [47  0]]
[[47  0]
 [47  0]]
[[47  0]
 [47  0]]
[[47  0]
 [47  0]]
[[47  0]
 [47  0]]
[[47  0]
 [47  0]]
[[47  0]
 [47  0]]
[[47  0]
 [47  0]]
[[47  0]
 [47  0]]
[[47  0]
 [47  0]]
[[47  0]
 [47  0]]
[[47  0]
 [47  0]]
[[47  0]
 [47  0]]
[[47  0]
 [47  0]]
[[47  0]
 [47  0]]
[[47  0]
 [47  0]]
[[47  0]
 [47  0]]
[[47  0]
 [47  0]]
[[47  0]
 [47  0]]
[[47  0]
 [47  0]]
[[47  0]
 [47  0]]
[[47  0]
 [47  0]]
[[47  0]
 [47  0]]
GNN(
  (fc): ModuleList(
    (0): Linear(512, 512, bias=True)
    (1): Linear(512, 256, bias=True)
    (2): Linear(256, 256, bias=True)
    (3): Linear(256, 256, bias=True)
  )
  (layers): ModuleList(
    (0): SAGEConv(3, 1024, aggr=mean)
    (1): LeakyReLU(negative_slope=0.01)
    (2): LayerNorm(1024, mode=graph)
    (3): SAGEConv(1024, 1024, aggr=mean)
    (4): LeakyReLU(negative_slope=0.01)
    (5): LayerNorm(1024, mode=graph)
    (6): SAGEConv(1024, 512, aggr=mean)
    (7): LeakyReLU(negative_slope=0.01)
    (8): LayerNorm(512, mode=graph)
  )
  (pred_layer): Linear(256, 1, bias=True)
)
Number of samples used: 30379
Number of samples used: 30379, with label: disease
Original Distrubution: [21657, 354, 4330, 72, 2888, 47]
Used Distrubution: [354, 354, 72, 72, 47, 47]
[[47  0]
 [47  0]]
[[47  0]
 [47  0]]
[[47  0]
 [47  0]]
[[47  0]
 [47  0]]
[[47  0]
 [47  0]]
[[47  0]
 [47  0]]
[[47  0]
 [47  0]]
[[47  0]
 [47  0]]
[[47  0]
 [47  0]]
[[47  0]
 [47  0]]
[[47  0]
 [47  0]]
[[47  0]
 [47  0]]
[[47  0]
 [47  0]]
[[47  0]
 [47  0]]
[[47  0]
 [47  0]]
[[47  0]
 [47  0]]
[[47  0]
 [47  0]]
[[47  0]
 [47  0]]
[[47  0]
 [47  0]]
[[47  0]
 [47  0]]
[[47  0]
 [47  0]]
[[47  0]
 [47  0]]
[[47  0]
 [47  0]]
[[47  0]
 [47  0]]
[[47  0]
 [47  0]]
[[47  0]
 [47  0]]
[[47  0]
 [47  0]]
[[47  0]
 [47  0]]
[[47  0]
 [47  0]]
[[47  0]
 [47  0]]
GNN(
  (fc): ModuleList(
    (0): Linear(512, 256, bias=True)
    (1): Linear(256, 256, bias=True)
    (2): Linear(256, 256, bias=True)
  )
  (input_encoder): Sequential(
    (0): Linear(in_features=3, out_features=16, bias=True)
    (1): Identity()
  )
  (layers): ModuleList(
    (0): SAGEConv(16, 1024, aggr=mean)
    (1): ELU(alpha=1.0)
    (2): LayerNorm(1024, mode=graph)
    (3): SAGEConv(1024, 1024, aggr=mean)
    (4): ELU(alpha=1.0)
    (5): LayerNorm(1024, mode=graph)
    (6): SAGEConv(1024, 512, aggr=mean)
    (7): ELU(alpha=1.0)
    (8): LayerNorm(512, mode=graph)
    (9): SAGEConv(512, 512, aggr=mean)
    (10): ELU(alpha=1.0)
    (11): LayerNorm(512, mode=graph)
  )
  (pred_layer): Linear(256, 1, bias=True)
)
Number of samples used: 30379
Number of samples used: 30379, with label: disease
Original Distrubution: [21657, 354, 4330, 72, 2888, 47]
Used Distrubution: [354, 354, 72, 72, 47, 47]
[[ 0 47]
 [ 0 47]]
[[ 0 47]
 [ 0 47]]
[[ 0 47]
 [ 0 47]]
[[ 0 47]
 [ 0 47]]
[[ 0 47]
 [ 0 47]]
[[ 0 47]
 [ 0 47]]
[[ 0 47]
 [ 0 47]]
[[ 0 47]
 [ 0 47]]
[[ 0 47]
 [ 0 47]]
[[ 0 47]
 [ 0 47]]
[[ 0 47]
 [ 0 47]]
[[ 0 47]
 [ 0 47]]
[[ 0 47]
 [ 0 47]]
[[ 0 47]
 [ 0 47]]
[[ 0 47]
 [ 0 47]]
[[ 0 47]
 [ 0 47]]
[[ 0 47]
 [ 0 47]]
[[ 0 47]
 [ 0 47]]
[[ 1 46]
 [ 0 47]]
[[ 7 40]
 [ 0 47]]
[[ 6 41]
 [ 0 47]]
[[ 7 40]
 [ 0 47]]
[[ 6 41]
 [ 0 47]]
[[ 6 41]
 [ 0 47]]
[[ 6 41]
 [ 0 47]]
[[ 6 41]
 [ 0 47]]
[[ 6 41]
 [ 0 47]]
[[ 6 41]
 [ 0 47]]
[[ 6 41]
 [ 0 47]]
[[ 6 41]
 [ 0 47]]
GNN(
  (fc): ModuleList(
    (0): Linear(1024, 512, bias=True)
    (1): Linear(512, 512, bias=True)
    (2): Linear(512, 256, bias=True)
    (3): Linear(256, 256, bias=True)
    (4): Linear(256, 256, bias=True)
  )
  (layers): ModuleList(
    (0): SAGEConv(3, 1024, aggr=mean)
    (1): Tanh()
    (2): LayerNorm(1024, mode=graph)
    (3): SAGEConv(1024, 1024, aggr=mean)
    (4): Tanh()
    (5): LayerNorm(1024, mode=graph)
  )
  (pred_layer): Linear(256, 1, bias=True)
)
Number of samples used: 30379
Number of samples used: 30379, with label: disease
Original Distrubution: [21657, 354, 4330, 72, 2888, 47]
Used Distrubution: [354, 354, 72, 72, 47, 47]
[[ 0 47]
 [ 0 47]]
[[ 0 47]
 [ 0 47]]
[[ 0 47]
 [ 0 47]]
[[ 0 47]
 [ 0 47]]
[[ 0 47]
 [ 0 47]]
[[ 0 47]
 [ 0 47]]
[[ 0 47]
 [ 0 47]]
[[ 0 47]
 [ 0 47]]
[[ 0 47]
 [ 0 47]]
[[ 0 47]
 [ 0 47]]
[[ 0 47]
 [ 0 47]]
[[ 0 47]
 [ 0 47]]
[[ 0 47]
 [ 0 47]]
[[ 0 47]
 [ 0 47]]
[[ 0 47]
 [ 0 47]]
[[ 0 47]
 [ 0 47]]
[[ 0 47]
 [ 0 47]]
[[ 0 47]
 [ 0 47]]
[[ 0 47]
 [ 0 47]]
[[ 0 47]
 [ 0 47]]
[[ 0 47]
 [ 0 47]]
[[ 0 47]
 [ 0 47]]
[[ 0 47]
 [ 0 47]]
[[ 0 47]
 [ 0 47]]
[[ 0 47]
 [ 0 47]]
[[ 0 47]
 [ 0 47]]
[[ 0 47]
 [ 0 47]]
[[ 0 47]
 [ 0 47]]
[[ 0 47]
 [ 0 47]]
[[ 0 47]
 [ 0 47]]
GNN(
  (fc): ModuleList(
    (0): Linear(512, 256, bias=True)
    (1): Linear(256, 256, bias=True)
    (2): Linear(256, 256, bias=True)
  )
  (layers): ModuleList(
    (0): SAGEConv(3, 1024, aggr=mean)
    (1): ELU(alpha=1.0)
    (2): LayerNorm(1024, mode=graph)
    (3): SAGEConv(1024, 1024, aggr=mean)
    (4): ELU(alpha=1.0)
    (5): LayerNorm(1024, mode=graph)
    (6): SAGEConv(1024, 512, aggr=mean)
    (7): ELU(alpha=1.0)
    (8): LayerNorm(512, mode=graph)
    (9): SAGEConv(512, 512, aggr=mean)
    (10): ELU(alpha=1.0)
    (11): LayerNorm(512, mode=graph)
  )
  (pred_layer): Linear(256, 1, bias=True)
)
Number of samples used: 30379
Number of samples used: 30379, with label: disease
Original Distrubution: [21657, 354, 4330, 72, 2888, 47]
Used Distrubution: [354, 354, 72, 72, 47, 47]
[[ 0 47]
 [ 0 47]]
[[ 0 47]
 [ 0 47]]
[[ 0 47]
 [ 0 47]]
[[ 0 47]
 [ 0 47]]
[[ 0 47]
 [ 0 47]]
[[ 0 47]
 [ 0 47]]
[[ 0 47]
 [ 0 47]]
[[ 0 47]
 [ 0 47]]
[[ 0 47]
 [ 0 47]]
[[ 0 47]
 [ 0 47]]
[[ 0 47]
 [ 0 47]]
[[ 0 47]
 [ 0 47]]
[[ 0 47]
 [ 0 47]]
[[ 0 47]
 [ 0 47]]
[[ 0 47]
 [ 0 47]]
[[ 0 47]
 [ 0 47]]
[[ 0 47]
 [ 0 47]]
[[ 0 47]
 [ 0 47]]
[[ 0 47]
 [ 0 47]]
[[ 0 47]
 [ 0 47]]
[[ 0 47]
 [ 0 47]]
[[ 0 47]
 [ 0 47]]
[[ 0 47]
 [ 0 47]]
[[ 0 47]
 [ 0 47]]
[[ 0 47]
 [ 0 47]]
[[ 0 47]
 [ 0 47]]
[[ 0 47]
 [ 0 47]]
[[ 0 47]
 [ 0 47]]
[[ 0 47]
 [ 0 47]]
[[ 0 47]
 [ 0 47]]
GNN(
  (fc): ModuleList(
    (0): Linear(256, 256, bias=True)
  )
  (layers): ModuleList(
    (0): SAGEConv(3, 1024, aggr=mean)
    (1): ELU(alpha=1.0)
    (2): SAGEConv(1024, 1024, aggr=mean)
    (3): ELU(alpha=1.0)
    (4): SAGEConv(1024, 512, aggr=mean)
    (5): ELU(alpha=1.0)
    (6): SAGEConv(512, 512, aggr=mean)
    (7): ELU(alpha=1.0)
    (8): SAGEConv(512, 256, aggr=mean)
    (9): ELU(alpha=1.0)
    (10): SAGEConv(256, 256, aggr=mean)
    (11): ELU(alpha=1.0)
  )
  (pred_layer): Linear(256, 1, bias=True)
)
Number of samples used: 30379
Number of samples used: 30379, with label: disease
Original Distrubution: [21657, 354, 4330, 72, 2888, 47]
Used Distrubution: [354, 354, 72, 72, 47, 47]
[[31  0]
 [33  0]]
[[16  0]
 [14  0]]
[[ 0 28]
 [ 0 36]]
[[ 0 19]
 [ 0 11]]
[[ 0 33]
 [ 0 31]]
[[ 0 14]
 [ 0 16]]
[[33  0]
 [31  0]]
[[14  0]
 [16  0]]
[[34  0]
 [30  0]]
[[13  0]
 [17  0]]
[[31  0]
…
[[32  0]
 [32  0]]
[[15  0]
 [15  0]]
[[31  0]
 [33  0]]
[[16  0]
 [14  0]]
[[30  0]
 [34  0]]
[[17  0]
 [13  0]]
[[29  0]
 [35  0]]
[[18  0]
 [12  0]]
[[33  0]
 [31  0]]
[[14  0]
 [16  0]]
[[27  0]
 [37  0]]
[[20  0]
 [10  0]]
[[33  0]
 [31  0]]
[[14  0]
 [16  0]]
[[29  0]
 [35  0]]
[[18  0]
 [12  0]]
[[31  0]
 [33  0]]
[[16  0]
 [14  0]]
[[32  0]
 [32  0]]
[[15  0]
 [15  0]]
[[30  0]
 [34  0]]
[[17  0]
 [13  0]]
[[33  0]
 [31  0]]
[[14  0]
 [16  0]]
[[35  0]
 [29  0]]
[[12  0]
 [18  0]]
[[30  0]
 [34  0]]
[[17  0]
 [13  0]]
[[33  0]
 [31  0]]
[[14  0]
 [16  0]]
GNN(
  (fc): ModuleList(
    (0): Linear(1024, 512, bias=True)
    (1): Linear(512, 512, bias=True)
    (2): Linear(512, 256, bias=True)
    (3): Linear(256, 256, bias=True)
    (4): Linear(256, 256, bias=True)
  )
  (input_encoder): Sequential(
    (0): Linear(in_features=3, out_features=8, bias=True)
    (1): Identity()
  )
  (layers): ModuleList(
    (0): SAGEConv(8, 1024, aggr=mean)
    (1): ELU(alpha=1.0)
    (2): LayerNorm(1024, mode=graph)
    (3): SAGEConv(1024, 1024, aggr=mean)
    (4): ELU(alpha=1.0)
    (5): LayerNorm(1024, mode=graph)
  )
  (pred_layer): Linear(256, 1, bias=True)
)
Number of samples used: 30379
Number of samples used: 30379, with label: disease
Original Distrubution: [21657, 354, 4330, 72, 2888, 47]
Used Distrubution: [354, 354, 72, 72, 47, 47]
[[ 0 47]
 [ 0 47]]
[[ 0 47]
 [ 0 47]]
[[ 0 47]
 [ 0 47]]
[[ 0 47]
 [ 0 47]]
[[ 0 47]
 [ 0 47]]
[[ 0 47]
 [ 0 47]]
[[ 0 47]
 [ 0 47]]
[[ 0 47]
 [ 0 47]]
[[ 0 47]
 [ 0 47]]
[[ 0 47]
 [ 0 47]]
[[ 0 47]
 [ 0 47]]
[[ 0 47]
 [ 0 47]]
[[ 0 47]
 [ 0 47]]
[[ 0 47]
 [ 0 47]]
[[ 0 47]
 [ 0 47]]
[[ 0 47]
 [ 0 47]]
[[ 0 47]
 [ 0 47]]
[[ 0 47]
 [ 0 47]]
[[ 0 47]
 [ 0 47]]
[[ 0 47]
 [ 0 47]]
[[ 0 47]
 [ 0 47]]
[[ 0 47]
 [ 0 47]]
[[ 0 47]
 [ 0 47]]
[[ 0 47]
 [ 0 47]]
[[ 0 47]
 [ 0 47]]
[[ 0 47]
 [ 0 47]]
[[ 0 47]
 [ 0 47]]
[[ 0 47]
 [ 0 47]]
[[ 0 47]
 [ 0 47]]
[[ 0 47]
 [ 0 47]]
GNN(
  (fc): ModuleList(
    (0): Linear(1024, 1024, bias=True)
    (1): Linear(1024, 512, bias=True)
    (2): Linear(512, 512, bias=True)
    (3): Linear(512, 256, bias=True)
    (4): Linear(256, 256, bias=True)
    (5): Linear(256, 256, bias=True)
  )
  (input_encoder): Sequential(
    (0): Linear(in_features=3, out_features=1, bias=True)
    (1): Identity()
  )
  (layers): ModuleList(
    (0): SAGEConv(1, 1024, aggr=mean)
    (1): ReLU()
    (2): LayerNorm(1024, mode=graph)
  )
  (pred_layer): Linear(256, 1, bias=True)
)
Number of samples used: 30379
Number of samples used: 30379, with label: disease
Original Distrubution: [21657, 354, 4330, 72, 2888, 47]
Used Distrubution: [354, 354, 72, 72, 47, 47]
[[47  0]
 [47  0]]
[[47  0]
 [47  0]]
[[47  0]
 [47  0]]
[[47  0]
 [47  0]]
[[47  0]
 [47  0]]
[[47  0]
 [47  0]]
[[47  0]
 [47  0]]
[[47  0]
 [47  0]]
[[47  0]
 [47  0]]
[[47  0]
 [47  0]]
[[47  0]
 [47  0]]
[[47  0]
 [47  0]]
[[47  0]
 [47  0]]
[[47  0]
 [47  0]]
[[47  0]
 [47  0]]
[[47  0]
 [47  0]]
[[47  0]
 [47  0]]
[[47  0]
 [47  0]]
[[47  0]
 [47  0]]
[[47  0]
 [47  0]]
[[47  0]
 [47  0]]
[[47  0]
 [47  0]]
[[47  0]
 [47  0]]
[[47  0]
 [47  0]]
[[47  0]
 [47  0]]
[[47  0]
 [47  0]]
[[47  0]
 [47  0]]
[[47  0]
 [47  0]]
[[47  0]
 [47  0]]
[[47  0]
 [47  0]]
GNN(
  (fc): ModuleList(
    (0): Linear(256, 256, bias=True)
  )
  (layers): ModuleList(
    (0): SAGEConv(3, 1024, aggr=mean)
    (1): Tanh()
    (2): LayerNorm(1024, mode=graph)
    (3): SAGEConv(1024, 1024, aggr=mean)
    (4): Tanh()
    (5): LayerNorm(1024, mode=graph)
    (6): SAGEConv(1024, 512, aggr=mean)
    (7): Tanh()
    (8): LayerNorm(512, mode=graph)
    (9): SAGEConv(512, 512, aggr=mean)
    (10): Tanh()
    (11): LayerNorm(512, mode=graph)
    (12): SAGEConv(512, 256, aggr=mean)
    (13): Tanh()
    (14): LayerNorm(256, mode=graph)
    (15): SAGEConv(256, 256, aggr=mean)
    (16): Tanh()
    (17): LayerNorm(256, mode=graph)
  )
  (pred_layer): Linear(256, 1, bias=True)
)
Number of samples used: 30379
Number of samples used: 30379, with label: disease
Original Distrubution: [21657, 354, 4330, 72, 2888, 47]
Used Distrubution: [354, 354, 72, 72, 47, 47]
[[47  0]
 [47  0]]
[[47  0]
 [47  0]]
[[29 18]
 [36 11]]
[[ 0 47]
 [ 0 47]]
[[ 0 47]
 [ 0 47]]
[[ 0 47]
 [ 0 47]]
[[ 0 47]
 [ 0 47]]
[[ 0 47]
 [ 0 47]]
[[ 0 47]
 [ 0 47]]
[[ 0 47]
 [ 0 47]]
[[ 0 47]
 [ 0 47]]
[[ 0 47]
 [ 0 47]]
[[ 0 47]
 [ 0 47]]
[[ 0 47]
 [ 0 47]]
[[ 0 47]
 [ 0 47]]
[[ 0 47]
 [ 0 47]]
[[ 0 47]
 [ 0 47]]
[[ 0 47]
 [ 0 47]]
[[ 0 47]
 [ 0 47]]
[[ 0 47]
 [ 0 47]]
[[ 0 47]
 [ 0 47]]
[[ 0 47]
 [ 0 47]]
[[ 0 47]
 [ 0 47]]
[[ 0 47]
 [ 0 47]]
[[ 0 47]
 [ 0 47]]
[[ 0 47]
 [ 0 47]]
[[ 0 47]
 [ 0 47]]
[[ 0 47]
 [ 0 47]]
[[ 0 47]
 [ 0 47]]
[[ 0 47]
 [ 0 47]]
GNN(
  (fc): ModuleList(
    (0): Linear(1024, 1024, bias=True)
    (1): Linear(1024, 512, bias=True)
    (2): Linear(512, 512, bias=True)
    (3): Linear(512, 256, bias=True)
    (4): Linear(256, 256, bias=True)
    (5): Linear(256, 256, bias=True)
  )
  (layers): ModuleList(
    (0): SAGEConv(3, 1024, aggr=mean)
    (1): Tanh()
  )
  (pred_layer): Linear(256, 1, bias=True)
)
Number of samples used: 30379
Number of samples used: 30379, with label: disease
Original Distrubution: [21657, 354, 4330, 72, 2888, 47]
Used Distrubution: [354, 354, 72, 72, 47, 47]
[[47  0]
 [47  0]]
[[47  0]
 [47  0]]
[[47  0]
 [47  0]]
[[47  0]
 [47  0]]
[[47  0]
 [47  0]]
[[47  0]
 [47  0]]
[[47  0]
 [47  0]]
[[47  0]
 [47  0]]
[[47  0]
 [47  0]]
[[47  0]
 [47  0]]
[[47  0]
 [47  0]]
[[47  0]
 [47  0]]
[[47  0]
 [47  0]]
[[47  0]
 [47  0]]
[[47  0]
 [47  0]]
[[47  0]
 [47  0]]
[[47  0]
 [47  0]]
[[47  0]
 [47  0]]
[[47  0]
 [47  0]]
[[47  0]
 [47  0]]
[[47  0]
 [47  0]]
[[47  0]
 [47  0]]
[[47  0]
 [47  0]]
[[47  0]
 [47  0]]
[[47  0]
 [47  0]]
[[47  0]
 [47  0]]
[[47  0]
 [47  0]]
[[47  0]
 [47  0]]
[[47  0]
 [47  0]]
[[47  0]
 [47  0]]
GNN(
  (fc): ModuleList(
    (0): Linear(256, 256, bias=True)
    (1): Linear(256, 256, bias=True)
  )
  (layers): ModuleList(
    (0): SAGEConv(3, 1024, aggr=mean)
    (1): ReLU()
    (2): SAGEConv(1024, 1024, aggr=mean)
    (3): ReLU()
    (4): SAGEConv(1024, 512, aggr=mean)
    (5): ReLU()
    (6): SAGEConv(512, 512, aggr=mean)
    (7): ReLU()
    (8): SAGEConv(512, 256, aggr=mean)
    (9): ReLU()
  )
  (pred_layer): Linear(256, 1, bias=True)
)
Number of samples used: 30379
Number of samples used: 30379, with label: disease
Original Distrubution: [21657, 354, 4330, 72, 2888, 47]
Used Distrubution: [354, 354, 72, 72, 47, 47]
[[47  0]
 [47  0]]
[[47  0]
 [47  0]]
[[47  0]
 [47  0]]
[[47  0]
 [47  0]]
[[47  0]
 [47  0]]
[[47  0]
 [47  0]]
[[47  0]
 [47  0]]
[[46  1]
 [46  1]]
[[45  2]
 [41  6]]
[[ 8 39]
 [16 31]]
[[ 0 47]
 [ 0 47]]
[[ 1 46]
 [ 0 47]]
[[ 5 42]
 [ 7 40]]
[[28 19]
 [30 17]]
[[38  9]
 [38  9]]
[[37 10]
 [37 10]]
[[21 26]
 [25 22]]
[[40  7]
 [39  8]]
[[46  1]
 [44  3]]
[[46  1]
 [46  1]]
[[47  0]
 [47  0]]
[[47  0]
 [47  0]]
[[47  0]
 [46  1]]
[[47  0]
 [46  1]]
[[47  0]
 [46  1]]
[[46  1]
 [45  2]]
[[46  1]
 [44  3]]
[[36 11]
 [38  9]]
[[41  6]
 [39  8]]
[[40  7]
 [39  8]]
GNN(
  (fc): ModuleList(
    (0): Linear(1024, 1024, bias=True)
    (1): Linear(1024, 512, bias=True)
    (2): Linear(512, 512, bias=True)
    (3): Linear(512, 256, bias=True)
    (4): Linear(256, 256, bias=True)
    (5): Linear(256, 256, bias=True)
  )
  (layers): ModuleList(
    (0): SAGEConv(3, 1024, aggr=mean)
    (1): ReLU()
  )
  (pred_layer): Linear(256, 1, bias=True)
)
Number of samples used: 30379
Number of samples used: 30379, with label: disease
Original Distrubution: [21657, 354, 4330, 72, 2888, 47]
Used Distrubution: [354, 354, 72, 72, 47, 47]
[[47  0]
 [47  0]]
[[47  0]
 [47  0]]
[[47  0]
 [47  0]]
[[47  0]
 [47  0]]
[[47  0]
 [47  0]]
[[47  0]
 [47  0]]
[[46  1]
 [46  1]]
[[14 33]
 [16 31]]
[[ 0 47]
 [ 0 47]]
[[ 0 47]
 [ 0 47]]
[[ 0 47]
 [ 0 47]]
[[ 0 47]
 [ 0 47]]
[[ 0 47]
 [ 0 47]]
[[ 0 47]
 [ 0 47]]
[[ 0 47]
 [ 0 47]]
[[ 0 47]
 [ 0 47]]
[[ 0 47]
 [ 0 47]]
[[ 0 47]
 [ 0 47]]
[[ 0 47]
 [ 0 47]]
[[ 0 47]
 [ 0 47]]
[[ 0 47]
 [ 0 47]]
[[ 0 47]
 [ 0 47]]
[[ 0 47]
 [ 0 47]]
[[ 0 47]
 [ 0 47]]
[[ 0 47]
 [ 0 47]]
[[ 0 47]
 [ 0 47]]
[[ 0 47]
 [ 0 47]]
[[ 0 47]
 [ 0 47]]
[[ 0 47]
 [ 0 47]]
[[ 0 47]
 [ 0 47]]
GNN(
  (fc): ModuleList(
    (0): Linear(512, 512, bias=True)
    (1): Linear(512, 256, bias=True)
    (2): Linear(256, 256, bias=True)
    (3): Linear(256, 256, bias=True)
  )
  (layers): ModuleList(
    (0): SAGEConv(3, 1024, aggr=mean)
    (1): ELU(alpha=1.0)
    (2): LayerNorm(1024, mode=graph)
    (3): SAGEConv(1024, 1024, aggr=mean)
    (4): ELU(alpha=1.0)
    (5): LayerNorm(1024, mode=graph)
    (6): SAGEConv(1024, 512, aggr=mean)
    (7): ELU(alpha=1.0)
    (8): LayerNorm(512, mode=graph)
  )
  (pred_layer): Linear(256, 1, bias=True)
)
Number of samples used: 30379
Number of samples used: 30379, with label: disease
Original Distrubution: [21657, 354, 4330, 72, 2888, 47]
Used Distrubution: [354, 354, 72, 72, 47, 47]
[[ 0 16]
 [ 0 16]]
[[ 0 16]
 [ 0 16]]
[[ 0 15]
 [ 0 15]]
[[ 0 17]
 [ 0 15]]
[[ 0 13]
 [ 0 19]]
[[ 0 17]
 [ 0 13]]
[[ 0 18]
 [ 0 14]]
[[ 0 18]
 [ 0 14]]
[[ 0 11]
 [ 0 19]]
[[ 0 12]
 [ 0 20]]
[[ 0 16]
…
[[ 0 21]
 [ 0 11]]
[[ 0 14]
 [ 0 18]]
[[ 0 12]
 [ 0 18]]
[[ 0 13]
 [ 0 19]]
[[ 0 17]
 [ 0 15]]
[[ 0 17]
 [ 0 13]]
[[ 0 20]
 [ 0 12]]
[[ 0 15]
 [ 0 17]]
[[ 0 12]
 [ 0 18]]
[[ 0 17]
 [ 0 15]]
[[ 0 11]
 [ 0 21]]
[[ 0 19]
 [ 0 11]]
[[ 0 19]
 [ 0 13]]
[[ 0 13]
 [ 0 19]]
[[ 0 15]
 [ 0 15]]
[[ 0 15]
 [ 0 17]]
[[ 0 17]
 [ 0 15]]
[[ 0 15]
 [ 0 15]]
[[ 0 15]
 [ 0 17]]
[[ 0 14]
 [ 0 18]]
[[ 0 18]
 [ 0 12]]
[[ 0 18]
 [ 0 14]]
[[ 0 17]
 [ 0 15]]
[[ 0 12]
 [ 0 18]]
[[ 0 18]
 [ 0 14]]
[[ 0 17]
 [ 0 15]]
[[ 0 12]
 [ 0 18]]
[[ 0 20]
 [ 0 12]]
[[ 0 15]
 [ 0 17]]
[[ 0 12]
 [ 0 18]]
GNN(
  (fc): ModuleList(
    (0): Linear(512, 512, bias=True)
    (1): Linear(512, 256, bias=True)
    (2): Linear(256, 256, bias=True)
    (3): Linear(256, 256, bias=True)
  )
  (layers): ModuleList(
    (0): SAGEConv(3, 1024, aggr=mean)
    (1): LeakyReLU(negative_slope=0.01)
    (2): SAGEConv(1024, 1024, aggr=mean)
    (3): LeakyReLU(negative_slope=0.01)
    (4): SAGEConv(1024, 512, aggr=mean)
    (5): LeakyReLU(negative_slope=0.01)
  )
  (pred_layer): Linear(256, 1, bias=True)
)
Number of samples used: 30379
Number of samples used: 30379, with label: disease
Original Distrubution: [21657, 354, 4330, 72, 2888, 47]
Used Distrubution: [354, 354, 72, 72, 47, 47]
[[ 0 16]
 [ 0 16]]
[[ 0 16]
 [ 0 16]]
[[ 0 15]
 [ 0 15]]
[[ 0 17]
 [ 0 15]]
[[ 0 13]
 [ 0 19]]
[[ 0 17]
 [ 0 13]]
[[ 0 18]
 [ 0 14]]
[[ 0 18]
 [ 0 14]]
[[ 0 11]
 [ 0 19]]
[[ 0 12]
 [ 0 20]]
[[ 0 16]
…
[[ 0 21]
 [ 0 11]]
[[ 0 14]
 [ 0 18]]
[[ 0 12]
 [ 0 18]]
[[ 0 13]
 [ 0 19]]
[[ 0 17]
 [ 0 15]]
[[ 0 17]
 [ 0 13]]
[[ 0 20]
 [ 0 12]]
[[ 0 15]
 [ 0 17]]
[[ 0 12]
 [ 0 18]]
[[ 0 17]
 [ 0 15]]
[[ 0 11]
 [ 0 21]]
[[ 0 19]
 [ 0 11]]
[[ 0 19]
 [ 0 13]]
[[ 0 13]
 [ 0 19]]
[[ 0 15]
 [ 0 15]]
[[ 0 15]
 [ 0 17]]
[[ 0 17]
 [ 0 15]]
[[ 0 15]
 [ 0 15]]
[[ 0 15]
 [ 0 17]]
[[ 0 14]
 [ 0 18]]
[[ 0 18]
 [ 0 12]]
[[ 0 18]
 [ 0 14]]
[[ 0 17]
 [ 0 15]]
[[ 0 12]
 [ 0 18]]
[[ 0 18]
 [ 0 14]]
[[ 0 17]
 [ 0 15]]
[[ 0 12]
 [ 0 18]]
[[ 0 20]
 [ 0 12]]
[[ 0 15]
 [ 0 17]]
[[ 0 12]
 [ 0 18]]
GNN(
  (fc): ModuleList(
    (0): Linear(256, 256, bias=True)
    (1): Linear(256, 256, bias=True)
  )
  (input_encoder): Sequential(
    (0): Linear(in_features=3, out_features=1, bias=True)
    (1): Identity()
  )
  (layers): ModuleList(
    (0): GATConv(1, 1024, heads=1)
    (1): ELU(alpha=1.0)
    (2): GATConv(1024, 1024, heads=1)
    (3): ELU(alpha=1.0)
    (4): GATConv(1024, 512, heads=1)
    (5): ELU(alpha=1.0)
    (6): GATConv(512, 512, heads=1)
    (7): ELU(alpha=1.0)
    (8): GATConv(512, 256, heads=1)
    (9): ELU(alpha=1.0)
  )
  (pred_layer): Linear(256, 1, bias=True)
)
Number of samples used: 30379
Number of samples used: 30379, with label: disease
Original Distrubution: [21657, 354, 4330, 72, 2888, 47]
Used Distrubution: [354, 354, 72, 72, 47, 47]
[[ 0 47]
 [ 0 47]]
[[ 0 47]
 [ 0 47]]
[[ 0 47]
 [ 0 47]]
[[ 0 47]
 [ 0 47]]
[[ 0 47]
 [ 0 47]]
[[ 0 47]
 [ 0 47]]
[[ 0 47]
 [ 0 47]]
[[ 0 47]
 [ 0 47]]
[[ 0 47]
 [ 0 47]]
[[ 0 47]
 [ 0 47]]
[[ 0 47]
 [ 0 47]]
[[ 0 47]
 [ 0 47]]
[[ 0 47]
 [ 0 47]]
[[ 0 47]
 [ 0 47]]
[[ 0 47]
 [ 0 47]]
[[ 0 47]
 [ 0 47]]
[[ 0 47]
 [ 0 47]]
[[ 0 47]
 [ 0 47]]
[[ 0 47]
 [ 0 47]]
[[ 0 47]
 [ 0 47]]
[[ 0 47]
 [ 0 47]]
[[ 0 47]
 [ 0 47]]
[[ 0 47]
 [ 0 47]]
[[ 0 47]
 [ 0 47]]
[[ 0 47]
 [ 0 47]]
[[ 0 47]
 [ 0 47]]
[[ 0 47]
 [ 0 47]]
[[ 0 47]
 [ 0 47]]
[[ 0 47]
 [ 0 47]]
[[ 0 47]
 [ 0 47]]
GNN(
  (fc): ModuleList(
    (0): Linear(256, 256, bias=True)
  )
  (input_encoder): Sequential(
    (0): Linear(in_features=3, out_features=1, bias=True)
    (1): Identity()
  )
  (layers): ModuleList(
    (0): GCNConv(1, 1024)
    (1): ELU(alpha=1.0)
    (2): LayerNorm(1024, mode=graph)
    (3): GCNConv(1024, 1024)
    (4): ELU(alpha=1.0)
    (5): LayerNorm(1024, mode=graph)
    (6): GCNConv(1024, 512)
    (7): ELU(alpha=1.0)
    (8): LayerNorm(512, mode=graph)
    (9): GCNConv(512, 512)
    (10): ELU(alpha=1.0)
    (11): LayerNorm(512, mode=graph)
    (12): GCNConv(512, 256)
    (13): ELU(alpha=1.0)
    (14): LayerNorm(256, mode=graph)
    (15): GCNConv(256, 256)
    (16): ELU(alpha=1.0)
    (17): LayerNorm(256, mode=graph)
  )
  (pred_layer): Linear(256, 1, bias=True)
)
Number of samples used: 30379
Number of samples used: 30379, with label: disease
Original Distrubution: [21657, 354, 4330, 72, 2888, 47]
Used Distrubution: [354, 354, 72, 72, 47, 47]
[[ 0 36]
 [ 0 28]]
[[ 0 11]
 [ 0 19]]
[[ 0 30]
 [ 0 34]]
[[ 0 17]
 [ 0 13]]
[[ 0 33]
 [ 0 31]]
[[ 0 14]
 [ 0 16]]
[[ 1 35]
 [ 0 28]]
[[ 0 11]
 [ 0 19]]
[[ 1 32]
 [ 0 31]]
[[ 0 14]
 [ 0 16]]
[[ 1 34]
…
 [ 6  8]]
[[15 15]
 [12 22]]
[[10  7]
 [ 6  7]]
[[16 15]
 [11 22]]
[[9 7]
 [7 7]]
[[19 16]
 [13 16]]
[[ 6  6]
 [ 5 13]]
[[15 19]
 [ 8 22]]
[[ 3 10]
 [ 6 11]]
[[13 20]
 [10 21]]
[[ 7  7]
 [ 6 10]]
[[14 19]
 [10 21]]
[[ 6  8]
 [ 6 10]]
[[18 15]
 [13 18]]
[[ 8  6]
 [ 6 10]]
[[25 14]
 [12 13]]
[[ 5  3]
 [10 12]]
[[18 13]
 [16 17]]
[[12  4]
 [ 5  9]]
[[19 12]
 [17 16]]
[[10  6]
 [ 4 10]]
[[15 15]
 [16 18]]
[[10  7]
 [ 2 11]]
[[13 18]
 [ 9 24]]
[[ 4 12]
 [ 4 10]]
[[13 19]
 [ 7 25]]
[[ 3 12]
 [ 2 13]]
[[ 7 26]
 [ 4 27]]
[[ 6  8]
 [ 3 13]]
[[ 8 23]
 [ 4 29]]
[[ 4 12]
 [ 2 12]]
GNN(
  (fc): ModuleList(
    (0): Linear(256, 256, bias=True)
  )
  (layers): ModuleList(
    (0): GCNConv(3, 1024)
    (1): ELU(alpha=1.0)
    (2): LayerNorm(1024, mode=graph)
    (3): GCNConv(1024, 1024)
    (4): ELU(alpha=1.0)
    (5): LayerNorm(1024, mode=graph)
    (6): GCNConv(1024, 512)
    (7): ELU(alpha=1.0)
    (8): LayerNorm(512, mode=graph)
    (9): GCNConv(512, 512)
    (10): ELU(alpha=1.0)
    (11): LayerNorm(512, mode=graph)
    (12): GCNConv(512, 256)
    (13): ELU(alpha=1.0)
    (14): LayerNorm(256, mode=graph)
    (15): GCNConv(256, 256)
    (16): ELU(alpha=1.0)
    (17): LayerNorm(256, mode=graph)
  )
  (pred_layer): Linear(256, 1, bias=True)
)
Number of samples used: 30379
Number of samples used: 30379, with label: disease
Original Distrubution: [21657, 354, 4330, 72, 2888, 47]
Used Distrubution: [354, 354, 72, 72, 47, 47]
[[28  2]
 [34  0]]
[[17  0]
 [13  0]]
[[32  0]
 [32  0]]
[[13  2]
 [15  0]]
[[31  1]
 [32  0]]
[[14  1]
 [15  0]]
[[29  2]
 [33  0]]
[[16  0]
 [14  0]]
[[33  2]
 [29  0]]
[[12  0]
 [18  0]]
[[29  2]
…
[[28  2]
 [34  0]]
[[17  0]
 [13  0]]
[[33  0]
 [31  0]]
[[12  2]
 [16  0]]
[[31  2]
 [31  0]]
[[14  0]
 [16  0]]
[[29  2]
 [33  0]]
[[16  0]
 [14  0]]
[[32  2]
 [30  0]]
[[13  0]
 [17  0]]
[[28  2]
 [34  0]]
[[17  0]
 [13  0]]
[[31  2]
 [31  0]]
[[14  0]
 [16  0]]
[[30  0]
 [34  0]]
[[15  2]
 [13  0]]
[[33  1]
 [30  0]]
[[12  1]
 [17  0]]
[[31  1]
 [32  0]]
[[14  1]
 [15  0]]
[[30  1]
 [33  0]]
[[15  1]
 [14  0]]
[[35  2]
 [27  0]]
[[10  0]
 [20  0]]
[[35  2]
 [27  0]]
[[10  0]
 [20  0]]
[[33  1]
 [30  0]]
[[12  1]
 [17  0]]
[[30  1]
 [33  0]]
[[15  1]
 [14  0]]
GNN(
  (fc): ModuleList(
    (0): Linear(512, 256, bias=True)
    (1): Linear(256, 256, bias=True)
    (2): Linear(256, 256, bias=True)
  )
  (input_encoder): Sequential(
    (0): Linear(in_features=3, out_features=4, bias=True)
    (1): Identity()
  )
  (layers): ModuleList(
    (0): SAGEConv(4, 1024, aggr=mean)
    (1): Tanh()
    (2): SAGEConv(1024, 1024, aggr=mean)
    (3): Tanh()
    (4): SAGEConv(1024, 512, aggr=mean)
    (5): Tanh()
    (6): SAGEConv(512, 512, aggr=mean)
    (7): Tanh()
  )
  (pred_layer): Linear(256, 1, bias=True)
)
Number of samples used: 30379
Number of samples used: 30379, with label: disease
Original Distrubution: [21657, 354, 4330, 72, 2888, 47]
Used Distrubution: [354, 354, 72, 72, 47, 47]
[[47  0]
 [47  0]]
[[47  0]
 [47  0]]
[[ 0 47]
 [ 0 47]]
[[47  0]
 [47  0]]
[[47  0]
 [47  0]]
[[ 0 47]
 [ 0 47]]
[[ 0 47]
 [ 0 47]]
[[47  0]
 [47  0]]
[[47  0]
 [47  0]]
[[ 0 47]
 [ 0 47]]
[[47  0]
 [47  0]]
[[47  0]
 [47  0]]
[[47  0]
 [47  0]]
[[ 0 47]
 [ 0 47]]
[[ 0 47]
 [ 0 47]]
[[47  0]
 [47  0]]
[[47  0]
 [47  0]]
[[47  0]
 [47  0]]
[[47  0]
 [47  0]]
[[47  0]
 [47  0]]
[[47  0]
 [47  0]]
[[47  0]
 [47  0]]
[[47  0]
 [47  0]]
[[47  0]
 [47  0]]
[[47  0]
 [47  0]]
[[47  0]
 [47  0]]
[[47  0]
 [47  0]]
[[47  0]
 [47  0]]
[[47  0]
 [47  0]]
[[47  0]
 [47  0]]
GNN(
  (fc): ModuleList(
    (0): Linear(1024, 512, bias=True)
    (1): Linear(512, 512, bias=True)
    (2): Linear(512, 256, bias=True)
    (3): Linear(256, 256, bias=True)
    (4): Linear(256, 256, bias=True)
  )
  (layers): ModuleList(
    (0): SAGEConv(3, 1024, aggr=mean)
    (1): ELU(alpha=1.0)
    (2): SAGEConv(1024, 1024, aggr=mean)
    (3): ELU(alpha=1.0)
  )
  (pred_layer): Linear(256, 1, bias=True)
)
Number of samples used: 30379
Number of samples used: 30379, with label: disease
Original Distrubution: [21657, 354, 4330, 72, 2888, 47]
Used Distrubution: [354, 354, 72, 72, 47, 47]
[[ 0 47]
 [ 0 47]]
[[ 0 47]
 [ 0 47]]
[[ 0 47]
 [ 0 47]]
[[ 0 47]
 [ 0 47]]
[[ 0 47]
 [ 0 47]]
[[ 0 47]
 [ 0 47]]
[[ 0 47]
 [ 0 47]]
[[ 0 47]
 [ 0 47]]
[[ 0 47]
 [ 0 47]]
[[ 0 47]
 [ 0 47]]
[[ 0 47]
 [ 0 47]]
[[ 0 47]
 [ 0 47]]
[[ 0 47]
 [ 0 47]]
[[ 0 47]
 [ 0 47]]
[[ 0 47]
 [ 0 47]]
[[ 0 47]
 [ 0 47]]
[[ 0 47]
 [ 0 47]]
[[ 0 47]
 [ 0 47]]
[[ 0 47]
 [ 0 47]]
[[ 0 47]
 [ 0 47]]
[[ 0 47]
 [ 0 47]]
[[ 0 47]
 [ 0 47]]
[[ 0 47]
 [ 0 47]]
[[ 0 47]
 [ 0 47]]
[[ 0 47]
 [ 0 47]]
[[ 0 47]
 [ 0 47]]
[[ 0 47]
 [ 0 47]]
[[ 0 47]
 [ 0 47]]
[[ 0 47]
 [ 0 47]]
[[ 0 47]
 [ 0 47]]
GNN(
  (fc): ModuleList(
    (0): Linear(1024, 512, bias=True)
    (1): Linear(512, 512, bias=True)
    (2): Linear(512, 256, bias=True)
    (3): Linear(256, 256, bias=True)
    (4): Linear(256, 256, bias=True)
  )
  (layers): ModuleList(
    (0): SAGEConv(3, 1024, aggr=mean)
    (1): ReLU()
    (2): LayerNorm(1024, mode=graph)
    (3): SAGEConv(1024, 1024, aggr=mean)
    (4): ReLU()
    (5): LayerNorm(1024, mode=graph)
  )
  (pred_layer): Linear(256, 1, bias=True)
)
Number of samples used: 30379
Number of samples used: 30379, with label: disease
Original Distrubution: [21657, 354, 4330, 72, 2888, 47]
Used Distrubution: [354, 354, 72, 72, 47, 47]
[[47  0]
 [47  0]]
[[47  0]
 [47  0]]
[[47  0]
 [47  0]]
[[47  0]
 [47  0]]
[[47  0]
 [47  0]]
[[47  0]
 [47  0]]
[[47  0]
 [47  0]]
[[47  0]
 [47  0]]
[[47  0]
 [47  0]]
[[47  0]
 [47  0]]
[[47  0]
 [47  0]]
[[47  0]
 [47  0]]
[[47  0]
 [47  0]]
[[47  0]
 [47  0]]
[[47  0]
 [47  0]]
[[47  0]
 [47  0]]
[[47  0]
 [47  0]]
[[47  0]
 [47  0]]
[[47  0]
 [47  0]]
[[47  0]
 [47  0]]
[[47  0]
 [47  0]]
[[47  0]
 [47  0]]
[[47  0]
 [47  0]]
[[47  0]
 [47  0]]
[[47  0]
 [47  0]]
[[47  0]
 [47  0]]
[[47  0]
 [47  0]]
[[47  0]
 [47  0]]
[[47  0]
 [47  0]]
[[47  0]
 [47  0]]
GNN(
  (fc): ModuleList(
    (0): Linear(256, 256, bias=True)
  )
  (input_encoder): Sequential(
    (0): Linear(in_features=3, out_features=1, bias=True)
    (1): Identity()
  )
  (layers): ModuleList(
    (0): GATConv(1, 1024, heads=1)
    (1): ReLU()
    (2): LayerNorm(1024, mode=graph)
    (3): GATConv(1024, 1024, heads=1)
    (4): ReLU()
    (5): LayerNorm(1024, mode=graph)
    (6): GATConv(1024, 512, heads=1)
    (7): ReLU()
    (8): LayerNorm(512, mode=graph)
    (9): GATConv(512, 512, heads=1)
    (10): ReLU()
    (11): LayerNorm(512, mode=graph)
    (12): GATConv(512, 256, heads=1)
    (13): ReLU()
    (14): LayerNorm(256, mode=graph)
    (15): GATConv(256, 256, heads=1)
    (16): ReLU()
    (17): LayerNorm(256, mode=graph)
  )
  (pred_layer): Linear(256, 1, bias=True)
)
Number of samples used: 30379
Number of samples used: 30379, with label: disease
Original Distrubution: [21657, 354, 4330, 72, 2888, 47]
Used Distrubution: [354, 354, 72, 72, 47, 47]
[[ 0 35]
 [ 0 29]]
[[ 0 12]
 [ 0 18]]
[[ 0 32]
 [ 0 32]]
[[ 0 15]
 [ 0 15]]
[[ 0 31]
 [ 0 33]]
[[ 0 16]
 [ 0 14]]
[[ 0 33]
 [ 0 31]]
[[ 0 14]
 [ 0 16]]
[[ 0 34]
 [ 0 30]]
[[ 0 13]
 [ 0 17]]
[[ 0 31]
…
[[ 0 36]
 [ 0 28]]
[[ 0 11]
 [ 0 19]]
[[ 0 27]
 [ 0 37]]
[[ 0 20]
 [ 0 10]]
[[ 0 35]
 [ 0 29]]
[[ 0 12]
 [ 0 18]]
[[ 0 30]
 [ 0 34]]
[[ 0 17]
 [ 0 13]]
[[ 0 34]
 [ 0 30]]
[[ 0 13]
 [ 0 17]]
[[ 0 33]
 [ 0 31]]
[[ 0 14]
 [ 0 16]]
[[ 0 30]
 [ 0 34]]
[[ 0 17]
 [ 0 13]]
[[ 0 31]
 [ 0 33]]
[[ 0 16]
 [ 0 14]]
[[ 0 28]
 [ 0 36]]
[[ 0 19]
 [ 0 11]]
[[ 0 33]
 [ 0 31]]
[[ 0 14]
 [ 0 16]]
[[ 0 32]
 [ 0 32]]
[[ 0 15]
 [ 0 15]]
[[ 0 32]
 [ 0 32]]
[[ 0 15]
 [ 0 15]]
[[ 0 34]
 [ 0 30]]
[[ 0 13]
 [ 0 17]]
[[ 0 32]
 [ 0 32]]
[[ 0 15]
 [ 0 15]]
[[ 0 35]
 [ 0 29]]
[[ 0 12]
 [ 0 18]]
GNN(
  (fc): ModuleList(
    (0): Linear(1024, 1024, bias=True)
    (1): Linear(1024, 512, bias=True)
    (2): Linear(512, 512, bias=True)
    (3): Linear(512, 256, bias=True)
    (4): Linear(256, 256, bias=True)
    (5): Linear(256, 256, bias=True)
  )
  (layers): ModuleList(
    (0): SAGEConv(3, 1024, aggr=mean)
    (1): ReLU()
  )
  (pred_layer): Linear(256, 1, bias=True)
)
Number of samples used: 30379
Number of samples used: 30379, with label: disease
Original Distrubution: [21657, 354, 4330, 72, 2888, 47]
Used Distrubution: [354, 354, 72, 72, 47, 47]
[[37  0]
 [27  0]]
[[10  0]
 [20  0]]
[[32  0]
 [32  0]]
[[15  0]
 [15  0]]
[[31  0]
 [33  0]]
[[16  0]
 [14  0]]
[[29  0]
 [35  0]]
[[18  0]
 [12  0]]
[[33  0]
 [31  0]]
[[14  0]
 [16  0]]
[[32  0]
…
[[36  0]
 [28  0]]
[[11  0]
 [19  0]]
[[32  0]
 [32  0]]
[[15  0]
 [15  0]]
[[35  0]
 [29  0]]
[[12  0]
 [18  0]]
[[31  0]
 [33  0]]
[[16  0]
 [14  0]]
[[34  0]
 [30  0]]
[[13  0]
 [17  0]]
[[27  0]
 [37  0]]
[[20  0]
 [10  0]]
[[33  0]
 [31  0]]
[[14  0]
 [16  0]]
[[30  0]
 [34  0]]
[[17  0]
 [13  0]]
[[33  0]
 [31  0]]
[[14  0]
 [16  0]]
[[32  0]
 [32  0]]
[[15  0]
 [15  0]]
[[31  0]
 [33  0]]
[[16  0]
 [14  0]]
[[30  0]
 [34  0]]
[[17  0]
 [13  0]]
[[33  0]
 [31  0]]
[[14  0]
 [16  0]]
[[33  0]
 [31  0]]
[[14  0]
 [16  0]]
[[30  0]
 [34  0]]
[[17  0]
 [13  0]]
GNN(
  (fc): ModuleList(
    (0): Linear(1024, 1024, bias=True)
    (1): Linear(1024, 512, bias=True)
    (2): Linear(512, 512, bias=True)
    (3): Linear(512, 256, bias=True)
    (4): Linear(256, 256, bias=True)
    (5): Linear(256, 256, bias=True)
  )
  (input_encoder): Sequential(
    (0): Linear(in_features=3, out_features=8, bias=True)
    (1): Identity()
  )
  (layers): ModuleList(
    (0): SAGEConv(8, 1024, aggr=mean)
    (1): Tanh()
    (2): LayerNorm(1024, mode=graph)
  )
  (pred_layer): Linear(256, 1, bias=True)
)
Number of samples used: 30379
Number of samples used: 30379, with label: disease
Original Distrubution: [21657, 354, 4330, 72, 2888, 47]
Used Distrubution: [354, 354, 72, 72, 47, 47]
[[ 0 47]
 [ 0 47]]
[[ 0 47]
 [ 0 47]]
[[ 0 47]
 [ 0 47]]
[[ 0 47]
 [ 0 47]]
[[ 0 47]
 [ 0 47]]
[[ 0 47]
 [ 0 47]]
[[ 0 47]
 [ 0 47]]
[[ 0 47]
 [ 0 47]]
[[ 0 47]
 [ 0 47]]
[[ 0 47]
 [ 0 47]]
[[ 0 47]
 [ 0 47]]
[[ 0 47]
 [ 0 47]]
[[ 0 47]
 [ 0 47]]
[[ 0 47]
 [ 0 47]]
[[ 0 47]
 [ 0 47]]
[[ 0 47]
 [ 0 47]]
[[ 0 47]
 [ 0 47]]
[[ 0 47]
 [ 0 47]]
[[ 0 47]
 [ 0 47]]
[[ 0 47]
 [ 0 47]]
[[ 0 47]
 [ 0 47]]
[[ 0 47]
 [ 0 47]]
[[ 0 47]
 [ 0 47]]
[[ 0 47]
 [ 0 47]]
[[ 0 47]
 [ 0 47]]
[[ 0 47]
 [ 0 47]]
[[ 0 47]
 [ 0 47]]
[[ 0 47]
 [ 0 47]]
[[ 0 47]
 [ 0 47]]
[[ 0 47]
 [ 0 47]]
GNN(
  (fc): ModuleList(
    (0): Linear(1024, 1024, bias=True)
    (1): Linear(1024, 512, bias=True)
    (2): Linear(512, 512, bias=True)
    (3): Linear(512, 256, bias=True)
    (4): Linear(256, 256, bias=True)
    (5): Linear(256, 256, bias=True)
  )
  (input_encoder): Sequential(
    (0): Linear(in_features=3, out_features=1, bias=True)
    (1): Identity()
  )
  (layers): ModuleList(
    (0): SAGEConv(1, 1024, aggr=mean)
    (1): Tanh()
  )
  (pred_layer): Linear(256, 1, bias=True)
)
Number of samples used: 30379
Number of samples used: 30379, with label: disease
Original Distrubution: [21657, 354, 4330, 72, 2888, 47]
Used Distrubution: [354, 354, 72, 72, 47, 47]
[[47  0]
 [47  0]]
[[47  0]
 [47  0]]
[[47  0]
 [47  0]]
[[47  0]
 [47  0]]
[[47  0]
 [47  0]]
[[47  0]
 [47  0]]
[[46  1]
 [42  5]]
[[47  0]
 [47  0]]
[[ 0 47]
 [ 0 47]]
[[47  0]
 [47  0]]
[[47  0]
 [47  0]]
[[47  0]
 [47  0]]
[[47  0]
 [47  0]]
[[47  0]
 [47  0]]
[[47  0]
 [47  0]]
[[47  0]
 [47  0]]
[[47  0]
 [47  0]]
[[47  0]
 [47  0]]
[[47  0]
 [47  0]]
[[47  0]
 [47  0]]
[[47  0]
 [47  0]]
[[47  0]
 [47  0]]
[[47  0]
 [47  0]]
[[47  0]
 [47  0]]
[[47  0]
 [47  0]]
[[47  0]
 [47  0]]
[[47  0]
 [47  0]]
[[47  0]
 [47  0]]
[[47  0]
 [47  0]]
[[47  0]
 [47  0]]
GNN(
  (fc): ModuleList(
    (0): Linear(512, 512, bias=True)
    (1): Linear(512, 256, bias=True)
    (2): Linear(256, 256, bias=True)
    (3): Linear(256, 256, bias=True)
  )
  (input_encoder): Sequential(
    (0): Linear(in_features=3, out_features=1, bias=True)
    (1): Identity()
  )
  (layers): ModuleList(
    (0): SAGEConv(1, 1024, aggr=mean)
    (1): ReLU()
    (2): LayerNorm(1024, mode=graph)
    (3): SAGEConv(1024, 1024, aggr=mean)
    (4): ReLU()
    (5): LayerNorm(1024, mode=graph)
    (6): SAGEConv(1024, 512, aggr=mean)
    (7): ReLU()
    (8): LayerNorm(512, mode=graph)
  )
  (pred_layer): Linear(256, 1, bias=True)
)
Number of samples used: 30379
Number of samples used: 30379, with label: disease
Original Distrubution: [21657, 354, 4330, 72, 2888, 47]
Used Distrubution: [354, 354, 72, 72, 47, 47]
[[32  0]
 [32  0]]
[[15  0]
 [15  0]]
[[25  0]
 [39  0]]
[[22  0]
 [ 8  0]]
[[35  0]
 [29  0]]
[[12  0]
 [18  0]]
[[35  0]
 [29  0]]
[[12  0]
 [18  0]]
[[30  0]
 [34  0]]
[[17  0]
 [13  0]]
[[32  0]
…
[[29  0]
 [35  0]]
[[18  0]
 [12  0]]
[[33  0]
 [31  0]]
[[14  0]
 [16  0]]
[[33  0]
 [31  0]]
[[14  0]
 [16  0]]
[[32  0]
 [32  0]]
[[15  0]
 [15  0]]
[[29  0]
 [35  0]]
[[18  0]
 [12  0]]
[[32  0]
 [32  0]]
[[15  0]
 [15  0]]
[[35  0]
 [29  0]]
[[12  0]
 [18  0]]
[[32  0]
 [32  0]]
[[15  0]
 [15  0]]
[[32  0]
 [32  0]]
[[15  0]
 [15  0]]
[[32  0]
 [32  0]]
[[15  0]
 [15  0]]
[[34  0]
 [30  0]]
[[13  0]
 [17  0]]
[[32  0]
 [32  0]]
[[15  0]
 [15  0]]
[[30  0]
 [34  0]]
[[17  0]
 [13  0]]
[[33  0]
 [31  0]]
[[14  0]
 [16  0]]
[[26  0]
 [38  0]]
[[21  0]
 [ 9  0]]
GNN(
  (fc): ModuleList(
    (0): Linear(1024, 512, bias=True)
    (1): Linear(512, 512, bias=True)
    (2): Linear(512, 256, bias=True)
    (3): Linear(256, 256, bias=True)
    (4): Linear(256, 256, bias=True)
  )
  (input_encoder): Sequential(
    (0): Linear(in_features=3, out_features=516, bias=True)
    (1): Identity()
  )
  (layers): ModuleList(
    (0): SAGEConv(516, 1024, aggr=mean)
    (1): ReLU()
    (2): SAGEConv(1024, 1024, aggr=mean)
    (3): ReLU()
  )
  (pred_layer): Linear(256, 1, bias=True)
)
Number of samples used: 30379
Number of samples used: 30379, with label: disease
Original Distrubution: [21657, 354, 4330, 72, 2888, 47]
Used Distrubution: [354, 354, 72, 72, 47, 47]
[[ 0 15]
 [ 0 17]]
[[ 0 16]
 [ 0 16]]
[[ 0 16]
 [ 0 14]]
[[ 0 16]
 [ 0 16]]
[[ 0 16]
 [ 0 16]]
[[ 0 15]
 [ 0 15]]
[[ 0 20]
 [ 0 12]]
[[ 0 12]
 [ 0 20]]
[[ 0 15]
 [ 0 15]]
[[ 0 13]
 [ 0 19]]
[[ 0 19]
…
[[ 0 14]
 [ 0 18]]
[[ 0 15]
 [ 0 17]]
[[ 0 18]
 [ 0 12]]
[[ 0 17]
 [ 0 15]]
[[ 0 15]
 [ 0 17]]
[[ 0 15]
 [ 0 15]]
[[ 0 18]
 [ 0 14]]
[[ 0 15]
 [ 0 17]]
[[ 0 14]
 [ 0 16]]
[[ 0 16]
 [ 0 16]]
[[ 0 18]
 [ 0 14]]
[[ 0 13]
 [ 0 17]]
[[ 0 17]
 [ 0 15]]
[[ 0 15]
 [ 0 17]]
[[ 0 15]
 [ 0 15]]
[[ 0 12]
 [ 0 20]]
[[ 0 21]
 [ 0 11]]
[[ 0 14]
 [ 0 16]]
[[ 0 15]
 [ 0 17]]
[[ 0 16]
 [ 0 16]]
[[ 0 16]
 [ 0 14]]
[[ 0 14]
 [ 0 18]]
[[ 0 17]
 [ 0 15]]
[[ 0 16]
 [ 0 14]]
[[ 0 17]
 [ 0 15]]
[[ 0 15]
 [ 0 17]]
[[ 0 15]
 [ 0 15]]
[[ 0 12]
 [ 0 20]]
[[ 0 17]
 [ 0 15]]
[[ 0 18]
 [ 0 12]]
GNN(
  (fc): ModuleList(
    (0): Linear(512, 512, bias=True)
    (1): Linear(512, 256, bias=True)
    (2): Linear(256, 256, bias=True)
    (3): Linear(256, 256, bias=True)
  )
  (layers): ModuleList(
    (0): GATConv(3, 1024, heads=1)
    (1): Tanh()
    (2): GATConv(1024, 1024, heads=1)
    (3): Tanh()
    (4): GATConv(1024, 512, heads=1)
    (5): Tanh()
  )
  (pred_layer): Linear(256, 1, bias=True)
)
Number of samples used: 30379
Number of samples used: 30379, with label: disease
Original Distrubution: [21657, 354, 4330, 72, 2888, 47]
Used Distrubution: [354, 354, 72, 72, 47, 47]
[[ 0 47]
 [ 0 47]]
[[ 0 47]
 [ 0 47]]
[[ 0 47]
 [ 0 47]]
[[ 0 47]
 [ 0 47]]
[[ 0 47]
 [ 0 47]]
[[ 0 47]
 [ 0 47]]
[[ 0 47]
 [ 0 47]]
[[ 0 47]
 [ 0 47]]
[[ 0 47]
 [ 0 47]]
[[ 0 47]
 [ 0 47]]
[[ 0 47]
 [ 0 47]]
[[ 0 47]
 [ 0 47]]
[[ 0 47]
 [ 0 47]]
[[ 0 47]
 [ 0 47]]
[[ 0 47]
 [ 0 47]]
[[ 0 47]
 [ 0 47]]
[[ 0 47]
 [ 0 47]]
[[ 0 47]
 [ 0 47]]
[[ 0 47]
 [ 0 47]]
[[ 0 47]
 [ 0 47]]
[[ 0 47]
 [ 0 47]]
[[ 0 47]
 [ 0 47]]
[[ 0 47]
 [ 0 47]]
[[ 0 47]
 [ 0 47]]
[[ 0 47]
 [ 0 47]]
[[ 0 47]
 [ 0 47]]
[[ 0 47]
 [ 0 47]]
[[ 0 47]
 [ 0 47]]
[[ 0 47]
 [ 0 47]]
[[ 0 47]
 [ 0 47]]
GNN(
  (fc): ModuleList(
    (0): Linear(256, 256, bias=True)
  )
  (input_encoder): Sequential(
    (0): Linear(in_features=3, out_features=8, bias=True)
    (1): Identity()
  )
  (layers): ModuleList(
    (0): GCNConv(8, 1024)
    (1): ReLU()
    (2): LayerNorm(1024, mode=graph)
    (3): GCNConv(1024, 1024)
    (4): ReLU()
    (5): LayerNorm(1024, mode=graph)
    (6): GCNConv(1024, 512)
    (7): ReLU()
    (8): LayerNorm(512, mode=graph)
    (9): GCNConv(512, 512)
    (10): ReLU()
    (11): LayerNorm(512, mode=graph)
    (12): GCNConv(512, 256)
    (13): ReLU()
    (14): LayerNorm(256, mode=graph)
    (15): GCNConv(256, 256)
    (16): ReLU()
    (17): LayerNorm(256, mode=graph)
  )
  (pred_layer): Linear(256, 1, bias=True)
)
Number of samples used: 30379
Number of samples used: 30379, with label: disease
Original Distrubution: [21657, 354, 4330, 72, 2888, 47]
Used Distrubution: [354, 354, 72, 72, 47, 47]
[[ 0 17]
 [ 0 15]]
[[ 0 17]
 [ 0 15]]
[[ 0 13]
 [ 0 17]]
[[ 1 13]
 [ 0 18]]
[[ 1 16]
 [ 0 15]]
[[ 0 16]
 [ 1 13]]
[[ 0 14]
 [ 0 18]]
[[ 0 19]
 [ 0 13]]
[[ 0 14]
 [ 0 16]]
[[ 0 16]
 [ 0 16]]
[[ 0 14]
…
[[15  0]
 [17  0]]
[[21  0]
 [11  0]]
[[11  0]
 [19  0]]
[[13  0]
 [19  0]]
[[16  0]
 [16  0]]
[[18  0]
 [12  0]]
[[14  0]
 [18  0]]
[[16  0]
 [16  0]]
[[17  0]
 [13  0]]
[[20  0]
 [12  0]]
[[15  0]
 [17  0]]
[[12  0]
 [18  0]]
[[14  0]
 [18  0]]
[[22  0]
 [10  0]]
[[11  0]
 [19  0]]
[[19  0]
 [13  0]]
[[16  0]
 [16  0]]
[[12  0]
 [18  0]]
[[18  0]
 [14  0]]
[[15  0]
 [17  0]]
[[14  0]
 [16  0]]
[[13  0]
 [19  0]]
[[17  0]
 [15  0]]
[[17  0]
 [13  0]]
[[17  0]
 [15  0]]
[[16  0]
 [16  0]]
[[14  0]
 [16  0]]
[[12  0]
 [20  0]]
[[14  0]
 [18  0]]
[[21  0]
 [ 9  0]]
GNN(
  (fc): ModuleList(
    (0): Linear(256, 256, bias=True)
  )
  (input_encoder): Sequential(
    (0): Linear(in_features=3, out_features=1, bias=True)
    (1): Identity()
  )
  (layers): ModuleList(
    (0): SAGEConv(1, 1024, aggr=mean)
    (1): ReLU()
    (2): SAGEConv(1024, 1024, aggr=mean)
    (3): ReLU()
    (4): SAGEConv(1024, 512, aggr=mean)
    (5): ReLU()
    (6): SAGEConv(512, 512, aggr=mean)
    (7): ReLU()
    (8): SAGEConv(512, 256, aggr=mean)
    (9): ReLU()
    (10): SAGEConv(256, 256, aggr=mean)
    (11): ReLU()
  )
  (pred_layer): Linear(256, 1, bias=True)
)
Number of samples used: 30379
Number of samples used: 30379, with label: disease
Original Distrubution: [21657, 354, 4330, 72, 2888, 47]
Used Distrubution: [354, 354, 72, 72, 47, 47]
[[ 0 47]
 [ 0 47]]
[[ 0 47]
 [ 0 47]]
[[ 0 47]
 [ 0 47]]
[[ 0 47]
 [ 0 47]]
[[ 0 47]
 [ 0 47]]
[[ 0 47]
 [ 0 47]]
[[ 0 47]
 [ 0 47]]
[[ 0 47]
 [ 0 47]]
[[ 0 47]
 [ 0 47]]
[[ 0 47]
 [ 0 47]]
[[ 0 47]
 [ 0 47]]
[[ 0 47]
 [ 0 47]]
[[ 0 47]
 [ 0 47]]
[[ 0 47]
 [ 0 47]]
[[ 0 47]
 [ 0 47]]
[[ 0 47]
 [ 0 47]]
[[ 0 47]
 [ 0 47]]
[[ 0 47]
 [ 0 47]]
[[ 0 47]
 [ 0 47]]
[[ 0 47]
 [ 0 47]]
[[ 0 47]
 [ 0 47]]
[[ 0 47]
 [ 0 47]]
[[ 0 47]
 [ 0 47]]
[[ 0 47]
 [ 0 47]]
[[ 0 47]
 [ 0 47]]
[[ 0 47]
 [ 0 47]]
[[ 0 47]
 [ 0 47]]
[[ 0 47]
 [ 0 47]]
[[ 0 47]
 [ 0 47]]
[[ 0 47]
 [ 0 47]]
GNN(
  (fc): ModuleList(
    (0): Linear(1024, 1024, bias=True)
    (1): Linear(1024, 512, bias=True)
    (2): Linear(512, 512, bias=True)
    (3): Linear(512, 256, bias=True)
    (4): Linear(256, 256, bias=True)
    (5): Linear(256, 256, bias=True)
  )
  (layers): ModuleList(
    (0): SAGEConv(3, 1024, aggr=mean)
    (1): Tanh()
    (2): LayerNorm(1024, mode=graph)
  )
  (pred_layer): Linear(256, 1, bias=True)
)
Number of samples used: 30379
Number of samples used: 30379, with label: disease
Original Distrubution: [21657, 354, 4330, 72, 2888, 47]
Used Distrubution: [354, 354, 72, 72, 47, 47]
[[17  0]
 [15  0]]
[[20  0]
 [12  0]]
[[10  0]
 [20  0]]
[[16  0]
 [16  0]]
[[16  0]
 [16  0]]
[[15  0]
 [15  0]]
[[14  0]
 [18  0]]
[[17  0]
 [15  0]]
[[16  0]
 [14  0]]
[[13  0]
 [19  0]]
[[16  0]
…
[[34  0]
 [30  0]]
[[13  0]
 [17  0]]
[[34  0]
 [30  0]]
[[13  0]
 [17  0]]
[[34  0]
 [30  0]]
[[13  0]
 [17  0]]
[[32  0]
 [32  0]]
[[15  0]
 [15  0]]
[[34  0]
 [30  0]]
[[13  0]
 [17  0]]
[[31  0]
 [33  0]]
[[16  0]
 [14  0]]
[[33  0]
 [31  0]]
[[14  0]
 [16  0]]
[[35  0]
 [29  0]]
[[12  0]
 [18  0]]
[[33  0]
 [31  0]]
[[14  0]
 [16  0]]
[[34  0]
 [30  0]]
[[13  0]
 [17  0]]
[[32  0]
 [32  0]]
[[15  0]
 [15  0]]
[[30  0]
 [34  0]]
[[17  0]
 [13  0]]
[[32  0]
 [32  0]]
[[15  0]
 [15  0]]
[[35  0]
 [29  0]]
[[12  0]
 [18  0]]
[[31  0]
 [33  0]]
[[16  0]
 [14  0]]
GNN(
  (fc): ModuleList(
    (0): Linear(512, 256, bias=True)
    (1): Linear(256, 256, bias=True)
    (2): Linear(256, 256, bias=True)
  )
  (layers): ModuleList(
    (0): GATConv(3, 1024, heads=1)
    (1): Tanh()
    (2): LayerNorm(1024, mode=graph)
    (3): GATConv(1024, 1024, heads=1)
    (4): Tanh()
    (5): LayerNorm(1024, mode=graph)
    (6): GATConv(1024, 512, heads=1)
    (7): Tanh()
    (8): LayerNorm(512, mode=graph)
    (9): GATConv(512, 512, heads=1)
    (10): Tanh()
    (11): LayerNorm(512, mode=graph)
  )
  (pred_layer): Linear(256, 1, bias=True)
)
Number of samples used: 30379
Number of samples used: 30379, with label: disease
Original Distrubution: [21657, 354, 4330, 72, 2888, 47]
Used Distrubution: [354, 354, 72, 72, 47, 47]
[[ 0 18]
 [ 0 14]]
[[ 0 13]
 [ 0 19]]
[[ 0 16]
 [ 0 14]]
[[ 0 19]
 [ 0 13]]
[[ 0 16]
 [ 0 16]]
[[ 0 12]
 [ 0 18]]
[[ 0 15]
 [ 0 17]]
[[ 0 14]
 [ 0 18]]
[[ 0 18]
 [ 0 12]]
[[ 0 16]
 [ 0 16]]
[[ 0 19]
…
[[ 0 16]
 [ 0 16]]
[[ 0 16]
 [ 0 16]]
[[ 0 15]
 [ 0 15]]
[[ 0 15]
 [ 0 17]]
[[ 0 15]
 [ 0 17]]
[[ 0 17]
 [ 0 13]]
[[ 0 16]
 [ 0 16]]
[[ 0 18]
 [ 0 14]]
[[ 0 13]
 [ 0 17]]
[[ 0 17]
 [ 0 15]]
[[ 0 16]
 [ 0 16]]
[[ 0 14]
 [ 0 16]]
[[ 0 19]
 [ 0 13]]
[[ 0 17]
 [ 0 15]]
[[ 0 11]
 [ 0 19]]
[[ 0 18]
 [ 0 14]]
[[ 0 13]
 [ 0 19]]
[[ 0 16]
 [ 0 14]]
[[ 0 13]
 [ 0 19]]
[[ 0 18]
 [ 0 14]]
[[ 0 16]
 [ 0 14]]
[[ 0 16]
 [ 0 16]]
[[ 0 17]
 [ 0 15]]
[[ 0 14]
 [ 0 16]]
[[ 0 15]
 [ 0 17]]
[[ 0 12]
 [ 0 20]]
[[ 0 20]
 [ 0 10]]
[[ 0 18]
 [ 0 14]]
[[ 0 15]
 [ 0 17]]
[[ 0 14]
 [ 0 16]]
GNN(
  (fc): ModuleList(
    (0): Linear(256, 256, bias=True)
  )
  (input_encoder): Sequential(
    (0): Linear(in_features=3, out_features=128, bias=True)
    (1): Identity()
  )
  (layers): ModuleList(
    (0): GCNConv(128, 1024)
    (1): ReLU()
    (2): LayerNorm(1024, mode=graph)
    (3): GCNConv(1024, 1024)
    (4): ReLU()
    (5): LayerNorm(1024, mode=graph)
    (6): GCNConv(1024, 512)
    (7): ReLU()
    (8): LayerNorm(512, mode=graph)
    (9): GCNConv(512, 512)
    (10): ReLU()
    (11): LayerNorm(512, mode=graph)
    (12): GCNConv(512, 256)
    (13): ReLU()
    (14): LayerNorm(256, mode=graph)
    (15): GCNConv(256, 256)
    (16): ReLU()
    (17): LayerNorm(256, mode=graph)
  )
  (pred_layer): Linear(256, 1, bias=True)
)
Number of samples used: 30379
Number of samples used: 30379, with label: disease
Original Distrubution: [21657, 354, 4330, 72, 2888, 47]
Used Distrubution: [354, 354, 72, 72, 47, 47]
[[17  0]
 [15  0]]
[[16  0]
 [16  0]]
[[14  0]
 [16  0]]
[[17  0]
 [15  0]]
[[17  0]
 [15  0]]
[[13  0]
 [17  0]]
[[14  0]
 [18  0]]
[[16  0]
 [16  0]]
[[17  0]
 [13  0]]
[[17  0]
 [15  0]]
[[16  0]
…
[[14  0]
 [18  0]]
[[15  0]
 [17  0]]
[[18  0]
 [12  0]]
[[15  0]
 [17  0]]
[[14  0]
 [18  0]]
[[18  0]
 [12  0]]
[[17  0]
 [15  0]]
[[15  0]
 [17  0]]
[[15  0]
 [15  0]]
[[16  0]
 [16  0]]
[[16  0]
 [16  0]]
[[15  0]
 [15  0]]
[[13  0]
 [19  0]]
[[18  0]
 [14  0]]
[[16  0]
 [14  0]]
[[15  0]
 [17  0]]
[[20  0]
 [12  0]]
[[12  0]
 [18  0]]
[[15  0]
 [17  0]]
[[19  0]
 [13  0]]
[[13  0]
 [17  0]]
[[18  0]
 [14  0]]
[[13  0]
 [19  0]]
[[16  0]
 [14  0]]
[[16  0]
 [16  0]]
[[17  0]
 [15  0]]
[[14  0]
 [16  0]]
[[16  0]
 [16  0]]
[[17  0]
 [15  0]]
[[14  0]
 [16  0]]
GNN(
  (fc): ModuleList(
    (0): Linear(1024, 512, bias=True)
    (1): Linear(512, 512, bias=True)
    (2): Linear(512, 256, bias=True)
    (3): Linear(256, 256, bias=True)
    (4): Linear(256, 256, bias=True)
  )
  (input_encoder): Sequential(
    (0): Linear(in_features=3, out_features=32, bias=True)
    (1): Identity()
  )
  (layers): ModuleList(
    (0): GCNConv(32, 1024)
    (1): ELU(alpha=1.0)
    (2): LayerNorm(1024, mode=graph)
    (3): GCNConv(1024, 1024)
    (4): ELU(alpha=1.0)
    (5): LayerNorm(1024, mode=graph)
  )
  (pred_layer): Linear(256, 1, bias=True)
)
Number of samples used: 30379
Number of samples used: 30379, with label: disease
Original Distrubution: [21657, 354, 4330, 72, 2888, 47]
Used Distrubution: [354, 354, 72, 72, 47, 47]
[[ 0 19]
 [ 0 13]]
[[ 0 17]
 [ 0 15]]
[[ 0 11]
 [ 0 19]]
[[ 0 15]
 [ 0 17]]
[[ 0 18]
 [ 0 14]]
[[ 0 14]
 [ 0 16]]
[[ 0 17]
 [ 0 15]]
[[ 0 14]
 [ 0 18]]
[[ 0 16]
 [ 0 14]]
[[ 0 16]
 [ 0 16]]
[[ 0 15]
…
[[ 0 16]
 [ 0 16]]
[[ 0 15]
 [ 0 17]]
[[ 0 16]
 [ 0 14]]
[[ 0 16]
 [ 0 16]]
[[ 0 18]
 [ 0 14]]
[[ 0 13]
 [ 0 17]]
[[ 0 15]
 [ 0 17]]
[[ 0 16]
 [ 0 16]]
[[ 0 16]
 [ 0 14]]
[[ 0 16]
 [ 0 16]]
[[ 0 12]
 [ 0 20]]
[[ 0 19]
 [ 0 11]]
[[ 0 18]
 [ 0 14]]
[[ 0 15]
 [ 0 17]]
[[ 0 14]
 [ 0 16]]
[[ 0 16]
 [ 0 16]]
[[ 0 16]
 [ 0 16]]
[[ 0 15]
 [ 0 15]]
[[ 0 12]
 [ 0 20]]
[[ 0 13]
 [ 0 19]]
[[ 0 22]
 [ 0  8]]
[[ 0 16]
 [ 0 16]]
[[ 0 15]
 [ 0 17]]
[[ 0 16]
 [ 0 14]]
[[ 0 16]
 [ 0 16]]
[[ 0 19]
 [ 0 13]]
[[ 0 12]
 [ 0 18]]
[[ 0 17]
 [ 0 15]]
[[ 0 14]
 [ 0 18]]
[[ 0 16]
 [ 0 14]]
GNN(
  (fc): ModuleList(
    (0): Linear(512, 512, bias=True)
    (1): Linear(512, 256, bias=True)
    (2): Linear(256, 256, bias=True)
    (3): Linear(256, 256, bias=True)
  )
  (input_encoder): Sequential(
    (0): Linear(in_features=3, out_features=128, bias=True)
    (1): Identity()
  )
  (layers): ModuleList(
    (0): GCNConv(128, 1024)
    (1): LeakyReLU(negative_slope=0.01)
    (2): GCNConv(1024, 1024)
    (3): LeakyReLU(negative_slope=0.01)
    (4): GCNConv(1024, 512)
    (5): LeakyReLU(negative_slope=0.01)
  )
  (pred_layer): Linear(256, 1, bias=True)
)
Number of samples used: 30379
Number of samples used: 30379, with label: disease
Original Distrubution: [21657, 354, 4330, 72, 2888, 47]
Used Distrubution: [354, 354, 72, 72, 47, 47]
[[ 0 47]
 [ 0 47]]
[[ 0 47]
 [ 0 47]]
[[ 0 47]
 [ 0 47]]
[[ 0 47]
 [ 0 47]]
[[ 0 47]
 [ 0 47]]
[[ 0 47]
 [ 0 47]]
[[ 0 47]
 [ 0 47]]
[[ 0 47]
 [ 0 47]]
[[ 0 47]
 [ 0 47]]
[[ 0 47]
 [ 0 47]]
[[ 0 47]
 [ 0 47]]
[[ 0 47]
 [ 0 47]]
[[ 0 47]
 [ 0 47]]
[[ 0 47]
 [ 0 47]]
[[ 0 47]
 [ 0 47]]
[[ 0 47]
 [ 0 47]]
[[ 0 47]
 [ 0 47]]
[[ 0 47]
 [ 0 47]]
[[ 0 47]
 [ 0 47]]
[[ 0 47]
 [ 0 47]]
[[ 0 47]
 [ 0 47]]
[[ 0 47]
 [ 0 47]]
[[ 0 47]
 [ 0 47]]
[[ 0 47]
 [ 0 47]]
[[ 0 47]
 [ 0 47]]
[[ 0 47]
 [ 0 47]]
[[ 0 47]
 [ 0 47]]
[[ 0 47]
 [ 0 47]]
[[ 0 47]
 [ 0 47]]
[[ 0 47]
 [ 0 47]]
GNN(
  (fc): ModuleList(
    (0): Linear(256, 256, bias=True)
  )
  (layers): ModuleList(
    (0): SAGEConv(3, 1024, aggr=mean)
    (1): ReLU()
    (2): LayerNorm(1024, mode=graph)
    (3): SAGEConv(1024, 1024, aggr=mean)
    (4): ReLU()
    (5): LayerNorm(1024, mode=graph)
    (6): SAGEConv(1024, 512, aggr=mean)
    (7): ReLU()
    (8): LayerNorm(512, mode=graph)
    (9): SAGEConv(512, 512, aggr=mean)
    (10): ReLU()
    (11): LayerNorm(512, mode=graph)
    (12): SAGEConv(512, 256, aggr=mean)
    (13): ReLU()
    (14): LayerNorm(256, mode=graph)
    (15): SAGEConv(256, 256, aggr=mean)
    (16): ReLU()
    (17): LayerNorm(256, mode=graph)
  )
  (pred_layer): Linear(256, 1, bias=True)
)
Number of samples used: 30379
Number of samples used: 30379, with label: disease
Original Distrubution: [21657, 354, 4330, 72, 2888, 47]
Used Distrubution: [354, 354, 72, 72, 47, 47]
[[31  0]
 [33  0]]
[[16  0]
 [14  0]]
[[28  0]
 [36  0]]
[[19  0]
 [11  0]]
[[33  0]
 [31  0]]
[[14  0]
 [16  0]]
[[33  0]
 [31  0]]
[[14  0]
 [16  0]]
[[34  0]
 [30  0]]
[[13  0]
 [17  0]]
[[31  0]
…
[[29  0]
 [35  0]]
[[18  0]
 [12  0]]
[[27  0]
 [37  0]]
[[20  0]
 [10  0]]
[[30  0]
 [34  0]]
[[17  0]
 [13  0]]
[[31  0]
 [33  0]]
[[16  0]
 [14  0]]
[[33  0]
 [31  0]]
[[14  0]
 [16  0]]
[[31  0]
 [33  0]]
[[16  0]
 [14  0]]
[[31  0]
 [33  0]]
[[16  0]
 [14  0]]
[[34  0]
 [30  0]]
[[13  0]
 [17  0]]
[[34  0]
 [30  0]]
[[13  0]
 [17  0]]
[[35  0]
 [29  0]]
[[12  0]
 [18  0]]
[[31  0]
 [33  0]]
[[16  0]
 [14  0]]
[[30  0]
 [34  0]]
[[17  0]
 [13  0]]
[[34  0]
 [30  0]]
[[13  0]
 [17  0]]
[[34  0]
 [30  0]]
[[13  0]
 [17  0]]
[[33  0]
 [31  0]]
[[14  0]
 [16  0]]
GNN(
  (fc): ModuleList(
    (0): Linear(256, 256, bias=True)
  )
  (layers): ModuleList(
    (0): SAGEConv(3, 1024, aggr=mean)
    (1): ELU(alpha=1.0)
    (2): LayerNorm(1024, mode=graph)
    (3): SAGEConv(1024, 1024, aggr=mean)
    (4): ELU(alpha=1.0)
    (5): LayerNorm(1024, mode=graph)
    (6): SAGEConv(1024, 512, aggr=mean)
    (7): ELU(alpha=1.0)
    (8): LayerNorm(512, mode=graph)
    (9): SAGEConv(512, 512, aggr=mean)
    (10): ELU(alpha=1.0)
    (11): LayerNorm(512, mode=graph)
    (12): SAGEConv(512, 256, aggr=mean)
    (13): ELU(alpha=1.0)
    (14): LayerNorm(256, mode=graph)
    (15): SAGEConv(256, 256, aggr=mean)
    (16): ELU(alpha=1.0)
    (17): LayerNorm(256, mode=graph)
  )
  (pred_layer): Linear(256, 1, bias=True)
)
Number of samples used: 30379
Number of samples used: 30379, with label: disease
Original Distrubution: [21657, 354, 4330, 72, 2888, 47]
Used Distrubution: [354, 354, 72, 72, 47, 47]
[[47  0]
 [47  0]]
[[47  0]
 [47  0]]
[[47  0]
 [47  0]]
[[47  0]
 [47  0]]
[[47  0]
 [47  0]]
[[47  0]
 [47  0]]
[[47  0]
 [47  0]]
[[47  0]
 [47  0]]
[[47  0]
 [47  0]]
[[47  0]
 [47  0]]
[[47  0]
 [47  0]]
[[47  0]
 [47  0]]
[[47  0]
 [47  0]]
[[47  0]
 [47  0]]
[[47  0]
 [47  0]]
[[47  0]
 [47  0]]
[[47  0]
 [47  0]]
[[47  0]
 [47  0]]
[[47  0]
 [47  0]]
[[47  0]
 [47  0]]
[[47  0]
 [47  0]]
[[47  0]
 [47  0]]
[[47  0]
 [47  0]]
[[47  0]
 [47  0]]
[[47  0]
 [47  0]]
[[47  0]
 [47  0]]
[[47  0]
 [47  0]]
[[47  0]
 [47  0]]
[[47  0]
 [47  0]]
[[47  0]
 [47  0]]
GNN(
  (fc): ModuleList(
    (0): Linear(256, 256, bias=True)
  )
  (input_encoder): Sequential(
    (0): Linear(in_features=3, out_features=4, bias=True)
    (1): Identity()
  )
  (layers): ModuleList(
    (0): GCNConv(4, 1024)
    (1): LeakyReLU(negative_slope=0.01)
    (2): GCNConv(1024, 1024)
    (3): LeakyReLU(negative_slope=0.01)
    (4): GCNConv(1024, 512)
    (5): LeakyReLU(negative_slope=0.01)
    (6): GCNConv(512, 512)
    (7): LeakyReLU(negative_slope=0.01)
    (8): GCNConv(512, 256)
    (9): LeakyReLU(negative_slope=0.01)
    (10): GCNConv(256, 256)
    (11): LeakyReLU(negative_slope=0.01)
  )
  (pred_layer): Linear(256, 1, bias=True)
)
Number of samples used: 30379
Number of samples used: 30379, with label: disease
Original Distrubution: [21657, 354, 4330, 72, 2888, 47]
Used Distrubution: [354, 354, 72, 72, 47, 47]
[[ 0 29]
 [ 0 35]]
[[ 0 18]
 [ 0 12]]
[[ 0 31]
 [ 0 33]]
[[ 0 16]
 [ 0 14]]
[[ 0 33]
 [ 0 31]]
[[ 0 14]
 [ 0 16]]
[[ 0 35]
 [ 0 29]]
[[ 0 12]
 [ 0 18]]
[[ 0 33]
 [ 0 31]]
[[ 0 14]
 [ 0 16]]
[[ 0 28]
…
[[ 0 34]
 [ 0 30]]
[[ 0 13]
 [ 0 17]]
[[ 0 33]
 [ 0 31]]
[[ 0 14]
 [ 0 16]]
[[ 0 35]
 [ 0 29]]
[[ 0 12]
 [ 0 18]]
[[ 0 31]
 [ 0 33]]
[[ 0 16]
 [ 0 14]]
[[ 0 35]
 [ 0 29]]
[[ 0 12]
 [ 0 18]]
[[ 0 34]
 [ 0 30]]
[[ 0 13]
 [ 0 17]]
[[ 0 35]
 [ 0 29]]
[[ 0 12]
 [ 0 18]]
[[ 0 33]
 [ 0 31]]
[[ 0 14]
 [ 0 16]]
[[ 0 31]
 [ 0 33]]
[[ 0 16]
 [ 0 14]]
[[ 0 30]
 [ 0 34]]
[[ 0 17]
 [ 0 13]]
[[ 0 32]
 [ 0 32]]
[[ 0 15]
 [ 0 15]]
[[ 0 39]
 [ 0 25]]
[[ 0  8]
 [ 0 22]]
[[ 0 30]
 [ 0 34]]
[[ 0 17]
 [ 0 13]]
[[ 0 35]
 [ 0 29]]
[[ 0 12]
 [ 0 18]]
[[ 0 35]
 [ 0 29]]
[[ 0 12]
 [ 0 18]]
GNN(
  (fc): ModuleList(
    (0): Linear(1024, 512, bias=True)
    (1): Linear(512, 512, bias=True)
    (2): Linear(512, 256, bias=True)
    (3): Linear(256, 256, bias=True)
    (4): Linear(256, 256, bias=True)
  )
  (layers): ModuleList(
    (0): SAGEConv(3, 1024, aggr=mean)
    (1): Tanh()
    (2): LayerNorm(1024, mode=graph)
    (3): SAGEConv(1024, 1024, aggr=mean)
    (4): Tanh()
    (5): LayerNorm(1024, mode=graph)
  )
  (pred_layer): Linear(256, 1, bias=True)
)
Number of samples used: 30379
Number of samples used: 30379, with label: disease
Original Distrubution: [21657, 354, 4330, 72, 2888, 47]
Used Distrubution: [354, 354, 72, 72, 47, 47]
[[ 0 16]
 [ 0 16]]
[[ 0 16]
 [ 0 16]]
[[ 0 15]
 [ 0 15]]
[[ 0 21]
 [ 0 11]]
[[ 0 10]
 [ 0 22]]
[[ 0 16]
 [ 0 14]]
[[ 0 13]
 [ 0 19]]
[[ 0 16]
 [ 0 16]]
[[ 0 18]
 [ 0 12]]
[[ 0 11]
 [ 0 21]]
[[ 0 18]
…
[[ 0 13]
 [ 0 19]]
[[ 0 15]
 [ 0 17]]
[[ 0 19]
 [ 0 11]]
[[ 0 17]
 [ 0 15]]
[[ 0 18]
 [ 0 14]]
[[ 0 12]
 [ 0 18]]
[[ 0 14]
 [ 0 18]]
[[ 0 16]
 [ 0 16]]
[[ 0 17]
 [ 0 13]]
[[ 0 17]
 [ 0 15]]
[[ 0 11]
 [ 0 21]]
[[ 0 19]
 [ 0 11]]
[[ 0 16]
 [ 0 16]]
[[ 0 17]
 [ 0 15]]
[[ 0 14]
 [ 0 16]]
[[ 0 14]
 [ 0 18]]
[[ 0 17]
 [ 0 15]]
[[ 0 16]
 [ 0 14]]
[[ 0 17]
 [ 0 15]]
[[ 0 19]
 [ 0 13]]
[[ 0 11]
 [ 0 19]]
[[ 0 18]
 [ 0 14]]
[[ 0 15]
 [ 0 17]]
[[ 0 14]
 [ 0 16]]
[[ 0 14]
 [ 0 18]]
[[ 0 18]
 [ 0 14]]
[[ 0 15]
 [ 0 15]]
[[ 0 12]
 [ 0 20]]
[[ 0 17]
 [ 0 15]]
[[ 0 18]
 [ 0 12]]
GNN(
  (fc): ModuleList(
    (0): Linear(1024, 512, bias=True)
    (1): Linear(512, 512, bias=True)
    (2): Linear(512, 256, bias=True)
    (3): Linear(256, 256, bias=True)
    (4): Linear(256, 256, bias=True)
  )
  (layers): ModuleList(
    (0): GATConv(3, 1024, heads=1)
    (1): LeakyReLU(negative_slope=0.01)
    (2): GATConv(1024, 1024, heads=1)
    (3): LeakyReLU(negative_slope=0.01)
  )
  (pred_layer): Linear(256, 1, bias=True)
)
Number of samples used: 30379
Number of samples used: 30379, with label: disease
Original Distrubution: [21657, 354, 4330, 72, 2888, 47]
Used Distrubution: [354, 354, 72, 72, 47, 47]
[[47  0]
 [47  0]]
[[47  0]
 [47  0]]
[[47  0]
 [47  0]]
[[47  0]
 [47  0]]
[[47  0]
 [47  0]]
[[47  0]
 [47  0]]
[[47  0]
 [47  0]]
[[47  0]
 [47  0]]
[[47  0]
 [47  0]]
[[47  0]
 [47  0]]
[[47  0]
 [47  0]]
[[47  0]
 [47  0]]
[[47  0]
 [47  0]]
[[47  0]
 [47  0]]
[[47  0]
 [47  0]]
[[47  0]
 [47  0]]
[[47  0]
 [47  0]]
[[47  0]
 [47  0]]
[[47  0]
 [47  0]]
[[47  0]
 [47  0]]
[[47  0]
 [47  0]]
[[47  0]
 [47  0]]
[[47  0]
 [47  0]]
[[47  0]
 [47  0]]
[[47  0]
 [47  0]]
[[47  0]
 [47  0]]
[[47  0]
 [47  0]]
[[47  0]
 [47  0]]
[[47  0]
 [47  0]]
[[47  0]
 [47  0]]
GNN(
  (fc): ModuleList(
    (0): Linear(1024, 1024, bias=True)
    (1): Linear(1024, 512, bias=True)
    (2): Linear(512, 512, bias=True)
    (3): Linear(512, 256, bias=True)
    (4): Linear(256, 256, bias=True)
    (5): Linear(256, 256, bias=True)
  )
  (layers): ModuleList(
    (0): GATConv(3, 1024, heads=1)
    (1): ReLU()
    (2): LayerNorm(1024, mode=graph)
  )
  (pred_layer): Linear(256, 1, bias=True)
)
Number of samples used: 30379
Number of samples used: 30379, with label: disease
Original Distrubution: [21657, 354, 4330, 72, 2888, 47]
Used Distrubution: [354, 354, 72, 72, 47, 47]
[[ 0 14]
 [ 0 18]]
[[ 0 18]
 [ 0 14]]
[[ 0 15]
 [ 0 15]]
[[ 0 20]
 [ 0 12]]
[[ 0 15]
 [ 0 17]]
[[ 0 12]
 [ 0 18]]
[[ 0 13]
 [ 0 19]]
[[ 0 17]
 [ 0 15]]
[[ 0 17]
 [ 0 13]]
[[ 0 18]
 [ 0 14]]
[[ 0 14]
…
[[ 0 15]
 [ 0 17]]
[[ 0 14]
 [ 0 18]]
[[ 0 18]
 [ 0 12]]
[[ 0 16]
 [ 0 16]]
[[ 0 20]
 [ 0 12]]
[[ 0 11]
 [ 0 19]]
[[ 0 12]
 [ 0 20]]
[[ 0 17]
 [ 0 15]]
[[ 0 18]
 [ 0 12]]
[[ 0 12]
 [ 0 20]]
[[ 0 18]
 [ 0 14]]
[[ 0 17]
 [ 0 13]]
[[ 0 19]
 [ 0 13]]
[[ 0 16]
 [ 0 16]]
[[ 0 12]
 [ 0 18]]
[[ 0 13]
 [ 0 19]]
[[ 0 16]
 [ 0 16]]
[[ 0 18]
 [ 0 12]]
[[ 0 16]
 [ 0 16]]
[[ 0 12]
 [ 0 20]]
[[ 0 19]
 [ 0 11]]
[[ 0 15]
 [ 0 17]]
[[ 0 17]
 [ 0 15]]
[[ 0 15]
 [ 0 15]]
[[ 0 16]
 [ 0 16]]
[[ 0 17]
 [ 0 15]]
[[ 0 14]
 [ 0 16]]
[[ 0 18]
 [ 0 14]]
[[ 0 14]
 [ 0 18]]
[[ 0 15]
 [ 0 15]]
GNN(
  (fc): ModuleList(
    (0): Linear(512, 512, bias=True)
    (1): Linear(512, 256, bias=True)
    (2): Linear(256, 256, bias=True)
    (3): Linear(256, 256, bias=True)
  )
  (input_encoder): Sequential(
    (0): Linear(in_features=3, out_features=1, bias=True)
    (1): Identity()
  )
  (layers): ModuleList(
    (0): SAGEConv(1, 1024, aggr=mean)
    (1): LeakyReLU(negative_slope=0.01)
    (2): SAGEConv(1024, 1024, aggr=mean)
    (3): LeakyReLU(negative_slope=0.01)
    (4): SAGEConv(1024, 512, aggr=mean)
    (5): LeakyReLU(negative_slope=0.01)
  )
  (pred_layer): Linear(256, 1, bias=True)
)
Number of samples used: 30379
Number of samples used: 30379, with label: disease
Original Distrubution: [21657, 354, 4330, 72, 2888, 47]
Used Distrubution: [354, 354, 72, 72, 47, 47]
[[47  0]
 [47  0]]
[[47  0]
 [47  0]]
[[47  0]
 [47  0]]
[[47  0]
 [47  0]]
[[47  0]
 [47  0]]
[[47  0]
 [47  0]]
[[47  0]
 [47  0]]
[[47  0]
 [47  0]]
[[47  0]
 [47  0]]
[[47  0]
 [47  0]]
[[47  0]
 [47  0]]
[[47  0]
 [47  0]]
[[47  0]
 [47  0]]
[[47  0]
 [47  0]]
[[47  0]
 [47  0]]
[[47  0]
 [47  0]]
[[47  0]
 [47  0]]
[[47  0]
 [47  0]]
[[47  0]
 [47  0]]
[[47  0]
 [47  0]]
[[47  0]
 [47  0]]
[[47  0]
 [47  0]]
[[47  0]
 [47  0]]
[[47  0]
 [47  0]]
[[47  0]
 [47  0]]
[[47  0]
 [47  0]]
[[47  0]
 [47  0]]
[[47  0]
 [47  0]]
[[47  0]
 [47  0]]
[[47  0]
 [47  0]]
GNN(
  (fc): ModuleList(
    (0): Linear(512, 512, bias=True)
    (1): Linear(512, 256, bias=True)
    (2): Linear(256, 256, bias=True)
    (3): Linear(256, 256, bias=True)
  )
  (input_encoder): Sequential(
    (0): Linear(in_features=3, out_features=1, bias=True)
    (1): Identity()
  )
  (layers): ModuleList(
    (0): GATConv(1, 1024, heads=1)
    (1): LeakyReLU(negative_slope=0.01)
    (2): GATConv(1024, 1024, heads=1)
    (3): LeakyReLU(negative_slope=0.01)
    (4): GATConv(1024, 512, heads=1)
    (5): LeakyReLU(negative_slope=0.01)
  )
  (pred_layer): Linear(256, 1, bias=True)
)
Number of samples used: 30379
Number of samples used: 30379, with label: disease
Original Distrubution: [21657, 354, 4330, 72, 2888, 47]
Used Distrubution: [354, 354, 72, 72, 47, 47]
[[ 0 19]
 [ 0 13]]
[[ 0 14]
 [ 0 18]]
[[ 0 14]
 [ 0 16]]
[[ 0 13]
 [ 0 19]]
[[ 0 17]
 [ 0 15]]
[[ 0 17]
 [ 0 13]]
[[ 0 13]
 [ 0 19]]
[[ 0 14]
 [ 0 18]]
[[ 0 20]
 [ 0 10]]
[[ 0 16]
 [ 0 16]]
[[ 0 20]
…
[[ 0 33]
 [ 0 31]]
[[ 0 14]
 [ 0 16]]
[[ 0 35]
 [ 0 29]]
[[ 0 12]
 [ 0 18]]
[[ 0 35]
 [ 0 29]]
[[ 0 12]
 [ 0 18]]
[[ 0 33]
 [ 0 31]]
[[ 0 14]
 [ 0 16]]
[[ 0 34]
 [ 0 30]]
[[ 0 13]
 [ 0 17]]
[[ 0 28]
 [ 0 36]]
[[ 0 19]
 [ 0 11]]
[[ 0 35]
 [ 0 29]]
[[ 0 12]
 [ 0 18]]
[[ 0 30]
 [ 0 34]]
[[ 0 17]
 [ 0 13]]
[[ 0 28]
 [ 0 36]]
[[ 0 19]
 [ 0 11]]
[[ 0 33]
 [ 0 31]]
[[ 0 14]
 [ 0 16]]
[[ 0 31]
 [ 0 33]]
[[ 0 16]
 [ 0 14]]
[[ 0 36]
 [ 0 28]]
[[ 0 11]
 [ 0 19]]
[[ 0 33]
 [ 0 31]]
[[ 0 14]
 [ 0 16]]
[[ 0 32]
 [ 0 32]]
[[ 0 15]
 [ 0 15]]
[[ 0 29]
 [ 0 35]]
[[ 0 18]
 [ 0 12]]
GNN(
  (fc): ModuleList(
    (0): Linear(512, 512, bias=True)
    (1): Linear(512, 256, bias=True)
    (2): Linear(256, 256, bias=True)
    (3): Linear(256, 256, bias=True)
  )
  (input_encoder): Sequential(
    (0): Linear(in_features=3, out_features=1, bias=True)
    (1): Identity()
  )
  (layers): ModuleList(
    (0): SAGEConv(1, 1024, aggr=mean)
    (1): ELU(alpha=1.0)
    (2): LayerNorm(1024, mode=graph)
    (3): SAGEConv(1024, 1024, aggr=mean)
    (4): ELU(alpha=1.0)
    (5): LayerNorm(1024, mode=graph)
    (6): SAGEConv(1024, 512, aggr=mean)
    (7): ELU(alpha=1.0)
    (8): LayerNorm(512, mode=graph)
  )
  (pred_layer): Linear(256, 1, bias=True)
)
Number of samples used: 30379
Number of samples used: 30379, with label: disease
Original Distrubution: [21657, 354, 4330, 72, 2888, 47]
Used Distrubution: [354, 354, 72, 72, 47, 47]
[[47  0]
 [47  0]]
[[47  0]
 [47  0]]
[[47  0]
 [47  0]]
[[47  0]
 [47  0]]
[[47  0]
 [47  0]]
[[47  0]
 [47  0]]
[[47  0]
 [47  0]]
[[47  0]
 [47  0]]
[[47  0]
 [47  0]]
[[47  0]
 [47  0]]
[[47  0]
 [47  0]]
[[47  0]
 [47  0]]
[[47  0]
 [47  0]]
[[47  0]
 [47  0]]
[[47  0]
 [47  0]]
[[47  0]
 [47  0]]
[[47  0]
 [47  0]]
[[47  0]
 [47  0]]
[[47  0]
 [47  0]]
[[47  0]
 [47  0]]
[[47  0]
 [47  0]]
[[47  0]
 [47  0]]
[[47  0]
 [47  0]]
[[47  0]
 [47  0]]
[[47  0]
 [47  0]]
[[47  0]
 [47  0]]
[[47  0]
 [47  0]]
[[47  0]
 [47  0]]
[[47  0]
 [47  0]]
[[47  0]
 [47  0]]
GNN(
  (fc): ModuleList(
    (0): Linear(1024, 512, bias=True)
    (1): Linear(512, 512, bias=True)
    (2): Linear(512, 256, bias=True)
    (3): Linear(256, 256, bias=True)
    (4): Linear(256, 256, bias=True)
  )
  (layers): ModuleList(
    (0): SAGEConv(3, 1024, aggr=mean)
    (1): Tanh()
    (2): SAGEConv(1024, 1024, aggr=mean)
    (3): Tanh()
  )
  (pred_layer): Linear(256, 1, bias=True)
)
Number of samples used: 30379
Number of samples used: 30379, with label: disease
Original Distrubution: [21657, 354, 4330, 72, 2888, 47]
Used Distrubution: [354, 354, 72, 72, 47, 47]
[[ 0 16]
 [ 0 16]]
[[ 0 16]
 [ 0 16]]
[[ 0 15]
 [ 0 15]]
[[ 0 21]
 [ 0 11]]
[[ 0 10]
 [ 0 22]]
[[ 0 16]
 [ 0 14]]
[[ 0 13]
 [ 0 19]]
[[ 0 16]
 [ 0 16]]
[[ 0 18]
 [ 0 12]]
[[ 0 11]
 [ 0 21]]
[[ 0 18]
…
[[ 0 13]
 [ 0 19]]
[[ 0 15]
 [ 0 17]]
[[ 0 19]
 [ 0 11]]
[[ 0 17]
 [ 0 15]]
[[ 0 18]
 [ 0 14]]
[[ 0 12]
 [ 0 18]]
[[ 0 14]
 [ 0 18]]
[[ 0 16]
 [ 0 16]]
[[ 0 17]
 [ 0 13]]
[[ 0 17]
 [ 0 15]]
[[ 0 11]
 [ 0 21]]
[[ 0 19]
 [ 0 11]]
[[ 0 16]
 [ 0 16]]
[[ 0 17]
 [ 0 15]]
[[ 0 14]
 [ 0 16]]
[[ 0 14]
 [ 0 18]]
[[ 0 17]
 [ 0 15]]
[[ 0 16]
 [ 0 14]]
[[ 0 17]
 [ 0 15]]
[[ 0 19]
 [ 0 13]]
[[ 0 11]
 [ 0 19]]
[[ 0 18]
 [ 0 14]]
[[ 0 15]
 [ 0 17]]
[[ 0 14]
 [ 0 16]]
[[ 0 14]
 [ 0 18]]
[[ 0 18]
 [ 0 14]]
[[ 0 15]
 [ 0 15]]
[[ 0 12]
 [ 0 20]]
[[ 0 17]
 [ 0 15]]
[[ 0 18]
 [ 0 12]]
GNN(
  (fc): ModuleList(
    (0): Linear(1024, 1024, bias=True)
    (1): Linear(1024, 512, bias=True)
    (2): Linear(512, 512, bias=True)
    (3): Linear(512, 256, bias=True)
    (4): Linear(256, 256, bias=True)
    (5): Linear(256, 256, bias=True)
  )
  (layers): ModuleList(
    (0): SAGEConv(3, 1024, aggr=mean)
    (1): ELU(alpha=1.0)
    (2): LayerNorm(1024, mode=graph)
  )
  (pred_layer): Linear(256, 1, bias=True)
)
Number of samples used: 30379
Number of samples used: 30379, with label: disease
Original Distrubution: [21657, 354, 4330, 72, 2888, 47]
Used Distrubution: [354, 354, 72, 72, 47, 47]
[[47  0]
 [47  0]]
[[47  0]
 [47  0]]
[[47  0]
 [47  0]]
[[47  0]
 [47  0]]
[[47  0]
 [47  0]]
[[47  0]
 [47  0]]
[[47  0]
 [47  0]]
[[47  0]
 [47  0]]
[[47  0]
 [47  0]]
[[47  0]
 [47  0]]
[[47  0]
 [47  0]]
[[47  0]
 [47  0]]
[[46  1]
 [46  1]]
[[44  3]
 [43  4]]
[[44  3]
 [42  5]]
[[43  4]
 [42  5]]
[[42  5]
 [40  7]]
[[42  5]
 [39  8]]
[[41  6]
 [39  8]]
[[40  7]
 [37 10]]
[[39  8]
 [37 10]]
[[38  9]
 [37 10]]
[[36 11]
 [36 11]]
[[33 14]
 [36 11]]
[[27 20]
 [32 15]]
[[27 20]
 [32 15]]
[[26 21]
 [32 15]]
[[26 21]
 [32 15]]
[[26 21]
 [32 15]]
[[26 21]
 [31 16]]
GNN(
  (fc): ModuleList(
    (0): Linear(256, 256, bias=True)
  )
  (layers): ModuleList(
    (0): GATConv(3, 1024, heads=1)
    (1): LeakyReLU(negative_slope=0.01)
    (2): LayerNorm(1024, mode=graph)
    (3): GATConv(1024, 1024, heads=1)
    (4): LeakyReLU(negative_slope=0.01)
    (5): LayerNorm(1024, mode=graph)
    (6): GATConv(1024, 512, heads=1)
    (7): LeakyReLU(negative_slope=0.01)
    (8): LayerNorm(512, mode=graph)
    (9): GATConv(512, 512, heads=1)
    (10): LeakyReLU(negative_slope=0.01)
    (11): LayerNorm(512, mode=graph)
    (12): GATConv(512, 256, heads=1)
    (13): LeakyReLU(negative_slope=0.01)
    (14): LayerNorm(256, mode=graph)
    (15): GATConv(256, 256, heads=1)
    (16): LeakyReLU(negative_slope=0.01)
    (17): LayerNorm(256, mode=graph)
  )
  (pred_layer): Linear(256, 1, bias=True)
)
Number of samples used: 30379
Number of samples used: 30379, with label: disease
Original Distrubution: [21657, 354, 4330, 72, 2888, 47]
Used Distrubution: [354, 354, 72, 72, 47, 47]
[[ 0 19]
 [ 0 13]]
[[ 0 16]
 [ 0 16]]
[[ 0 12]
 [ 0 18]]
[[ 0 16]
 [ 0 16]]
[[ 0 21]
 [ 0 11]]
[[ 0 10]
 [ 0 20]]
[[ 0 16]
 [ 0 16]]
[[ 0 10]
 [ 0 22]]
[[ 0 21]
 [ 0  9]]
[[19  0]
 [13  0]]
[[14  0]
…
[[ 0 14]
 [ 0 18]]
[[ 0 16]
 [ 0 16]]
[[ 0 17]
 [ 0 13]]
[[ 1 16]
 [ 0 15]]
[[ 0 16]
 [ 0 16]]
[[ 0 14]
 [ 0 16]]
[[ 0 13]
 [ 0 19]]
[[ 0 17]
 [ 0 15]]
[[ 0 17]
 [ 0 13]]
[[ 0 19]
 [ 0 13]]
[[ 0 15]
 [ 0 17]]
[[ 0 13]
 [ 0 17]]
[[16  0]
 [16  0]]
[[16  0]
 [16  0]]
[[15  0]
 [15  0]]
[[18  0]
 [14  0]]
[[13  0]
 [19  0]]
[[16  0]
 [14  0]]
[[15  0]
 [17  0]]
[[22  0]
 [10  0]]
[[10  0]
 [20  0]]
[[16  0]
 [16  0]]
[[21  0]
 [11  0]]
[[10  0]
 [20  0]]
[[ 2 16]
 [ 0 14]]
[[ 0 16]
 [ 0 16]]
[[ 0 13]
 [ 1 16]]
[[ 0 16]
 [ 0 16]]
[[ 0 15]
 [ 0 17]]
[[ 0 16]
 [ 0 14]]
GNN(
  (fc): ModuleList(
    (0): Linear(1024, 512, bias=True)
    (1): Linear(512, 512, bias=True)
    (2): Linear(512, 256, bias=True)
    (3): Linear(256, 256, bias=True)
    (4): Linear(256, 256, bias=True)
  )
  (input_encoder): Sequential(
    (0): Linear(in_features=3, out_features=1, bias=True)
    (1): Identity()
  )
  (layers): ModuleList(
    (0): GATConv(1, 1024, heads=1)
    (1): LeakyReLU(negative_slope=0.01)
    (2): LayerNorm(1024, mode=graph)
    (3): GATConv(1024, 1024, heads=1)
    (4): LeakyReLU(negative_slope=0.01)
    (5): LayerNorm(1024, mode=graph)
  )
  (pred_layer): Linear(256, 1, bias=True)
)
Number of samples used: 30379
Number of samples used: 30379, with label: disease
Original Distrubution: [21657, 354, 4330, 72, 2888, 47]
Used Distrubution: [354, 354, 72, 72, 47, 47]
[[ 0 18]
 [ 0 14]]
[[ 0 14]
 [ 0 18]]
[[ 0 15]
 [ 0 15]]
[[ 0 12]
 [ 0 20]]
[[ 0 19]
 [ 0 13]]
[[ 0 16]
 [ 0 14]]
[[ 0 14]
 [ 0 18]]
[[ 0 17]
 [ 0 15]]
[[ 0 16]
 [ 0 14]]
[[ 0 16]
 [ 0 16]]
[[ 0 18]
…
[[ 0 19]
 [ 0 13]]
[[ 0 16]
 [ 0 16]]
[[ 0 12]
 [ 0 18]]
[[ 0 19]
 [ 0 13]]
[[ 0 13]
 [ 0 19]]
[[ 0 15]
 [ 0 15]]
[[ 0 17]
 [ 0 15]]
[[ 0 16]
 [ 0 16]]
[[ 0 14]
 [ 0 16]]
[[ 0 17]
 [ 0 15]]
[[ 0 15]
 [ 0 17]]
[[ 0 15]
 [ 0 15]]
[[ 0 19]
 [ 0 13]]
[[ 0 14]
 [ 0 18]]
[[ 0 14]
 [ 0 16]]
[[ 0 16]
 [ 0 16]]
[[ 0 19]
 [ 0 13]]
[[ 0 12]
 [ 0 18]]
[[ 0 15]
 [ 0 17]]
[[ 0 13]
 [ 0 19]]
[[ 0 19]
 [ 0 11]]
[[ 0 13]
 [ 0 19]]
[[ 0 21]
 [ 0 11]]
[[ 0 13]
 [ 0 17]]
[[ 0 19]
 [ 0 13]]
[[ 0 16]
 [ 0 16]]
[[ 0 12]
 [ 0 18]]
[[ 0 13]
 [ 0 19]]
[[ 0 15]
 [ 0 17]]
[[ 0 19]
 [ 0 11]]
GNN(
  (fc): ModuleList(
    (0): Linear(512, 512, bias=True)
    (1): Linear(512, 256, bias=True)
    (2): Linear(256, 256, bias=True)
    (3): Linear(256, 256, bias=True)
  )
  (input_encoder): Sequential(
    (0): Linear(in_features=3, out_features=516, bias=True)
    (1): Identity()
  )
  (layers): ModuleList(
    (0): GATConv(516, 1024, heads=1)
    (1): Tanh()
    (2): LayerNorm(1024, mode=graph)
    (3): GATConv(1024, 1024, heads=1)
    (4): Tanh()
    (5): LayerNorm(1024, mode=graph)
    (6): GATConv(1024, 512, heads=1)
    (7): Tanh()
    (8): LayerNorm(512, mode=graph)
  )
  (pred_layer): Linear(256, 1, bias=True)
)
Number of samples used: 30379
Number of samples used: 30379, with label: disease
Original Distrubution: [21657, 354, 4330, 72, 2888, 47]
Used Distrubution: [354, 354, 72, 72, 47, 47]
[[ 0 14]
 [ 0 18]]
[[ 0 16]
 [ 0 16]]
[[ 0 17]
 [ 0 13]]
[[ 0 17]
 [ 0 15]]
[[ 0 15]
 [ 0 17]]
[[ 0 15]
 [ 0 15]]
[[ 0 17]
 [ 0 15]]
[[ 0 14]
 [ 0 18]]
[[ 0 16]
 [ 0 14]]
[[ 0 14]
 [ 0 18]]
[[ 0 18]
…
[[15  0]
 [17  0]]
[[19  0]
 [13  0]]
[[13  0]
 [17  0]]
[[21  0]
 [11  0]]
[[13  0]
 [19  0]]
[[13  0]
 [17  0]]
[[17  0]
 [15  0]]
[[17  0]
 [15  0]]
[[13  0]
 [17  0]]
[[17  0]
 [15  0]]
[[14  0]
 [18  0]]
[[16  0]
 [14  0]]
[[16  0]
 [16  0]]
[[17  0]
 [15  0]]
[[14  0]
 [16  0]]
[[16  0]
 [16  0]]
[[15  0]
 [17  0]]
[[16  0]
 [14  0]]
[[20  0]
 [12  0]]
[[14  0]
 [18  0]]
[[13  0]
 [17  0]]
[[18  0]
 [14  0]]
[[13  0]
 [19  0]]
[[16  0]
 [14  0]]
[[13  0]
 [19  0]]
[[18  0]
 [14  0]]
[[16  0]
 [14  0]]
[[17  0]
 [15  0]]
[[16  0]
 [16  0]]
[[14  0]
 [16  0]]
GNN(
  (fc): ModuleList(
    (0): Linear(1024, 1024, bias=True)
    (1): Linear(1024, 512, bias=True)
    (2): Linear(512, 512, bias=True)
    (3): Linear(512, 256, bias=True)
    (4): Linear(256, 256, bias=True)
    (5): Linear(256, 256, bias=True)
  )
  (input_encoder): Sequential(
    (0): Linear(in_features=3, out_features=32, bias=True)
    (1): Identity()
  )
  (layers): ModuleList(
    (0): SAGEConv(32, 1024, aggr=mean)
    (1): LeakyReLU(negative_slope=0.01)
    (2): LayerNorm(1024, mode=graph)
  )
  (pred_layer): Linear(256, 1, bias=True)
)
Number of samples used: 30379
Number of samples used: 30379, with label: disease
Original Distrubution: [21657, 354, 4330, 72, 2888, 47]
Used Distrubution: [354, 354, 72, 72, 47, 47]
[[ 0 18]
 [ 0 14]]
[[ 0 16]
 [ 0 16]]
[[ 0 13]
 [ 0 17]]
[[ 0 21]
 [ 0 11]]
[[ 0 13]
 [ 0 19]]
[[ 0 13]
 [ 0 17]]
[[14  0]
 [18  0]]
[[20  0]
 [12  0]]
[[13  0]
 [17  0]]
[[ 0 17]
 [ 0 15]]
[[ 0 17]
…
[[13  0]
 [19  0]]
[[18  0]
 [14  0]]
[[16  0]
 [14  0]]
[[17  0]
 [15  0]]
[[14  0]
 [18  0]]
[[16  0]
 [14  0]]
[[13  0]
 [19  0]]
[[17  0]
 [15  0]]
[[17  0]
 [13  0]]
[[16  0]
 [16  0]]
[[13  0]
 [19  0]]
[[18  0]
 [12  0]]
[[13  0]
 [19  0]]
[[20  0]
 [12  0]]
[[14  0]
 [16  0]]
[[17  0]
 [14  1]]
[[15  0]
 [14  3]]
[[14  1]
 [13  2]]
[[17  0]
 [15  0]]
[[16  0]
 [16  0]]
[[14  0]
 [16  0]]
[[18  0]
 [14  0]]
[[17  0]
 [15  0]]
[[12  0]
 [18  0]]
[[18  0]
 [14  0]]
[[15  0]
 [17  0]]
[[14  0]
 [16  0]]
[[ 9  7]
 [12  4]]
[[12  6]
 [10  4]]
[[10  3]
 [13  4]]
GNN(
  (fc): ModuleList(
    (0): Linear(1024, 1024, bias=True)
    (1): Linear(1024, 512, bias=True)
    (2): Linear(512, 512, bias=True)
    (3): Linear(512, 256, bias=True)
    (4): Linear(256, 256, bias=True)
    (5): Linear(256, 256, bias=True)
  )
  (input_encoder): Sequential(
    (0): Linear(in_features=3, out_features=1, bias=True)
    (1): Identity()
  )
  (layers): ModuleList(
    (0): GCNConv(1, 1024)
    (1): Tanh()
    (2): LayerNorm(1024, mode=graph)
  )
  (pred_layer): Linear(256, 1, bias=True)
)
Number of samples used: 30379
Number of samples used: 30379, with label: disease
Original Distrubution: [21657, 354, 4330, 72, 2888, 47]
Used Distrubution: [354, 354, 72, 72, 47, 47]
[[30  0]
 [34  0]]
[[17  0]
 [13  0]]
[[35  0]
 [29  0]]
[[12  0]
 [18  0]]
[[30  0]
 [34  0]]
[[17  0]
 [13  0]]
[[29  0]
 [35  0]]
[[18  0]
 [12  0]]
[[32  0]
 [32  0]]
[[15  0]
 [15  0]]
[[32  0]
…
[[33  0]
 [31  0]]
[[14  0]
 [16  0]]
[[36  0]
 [28  0]]
[[11  0]
 [19  0]]
[[30  0]
 [34  0]]
[[17  0]
 [13  0]]
[[33  0]
 [31  0]]
[[14  0]
 [16  0]]
[[32  0]
 [32  0]]
[[15  0]
 [15  0]]
[[34  0]
 [30  0]]
[[13  0]
 [17  0]]
[[31  0]
 [33  0]]
[[16  0]
 [14  0]]
[[29  0]
 [35  0]]
[[18  0]
 [12  0]]
[[31  0]
 [33  0]]
[[16  0]
 [14  0]]
[[33  0]
 [31  0]]
[[14  0]
 [16  0]]
[[34  0]
 [30  0]]
[[13  0]
 [17  0]]
[[29  0]
 [35  0]]
[[18  0]
 [12  0]]
[[37  0]
 [27  0]]
[[10  0]
 [20  0]]
[[32  0]
 [32  0]]
[[15  0]
 [15  0]]
[[31  0]
 [33  0]]
[[16  0]
 [14  0]]
GNN(
  (fc): ModuleList(
    (0): Linear(1024, 1024, bias=True)
    (1): Linear(1024, 512, bias=True)
    (2): Linear(512, 512, bias=True)
    (3): Linear(512, 256, bias=True)
    (4): Linear(256, 256, bias=True)
    (5): Linear(256, 256, bias=True)
  )
  (input_encoder): Sequential(
    (0): Linear(in_features=3, out_features=1, bias=True)
    (1): Identity()
  )
  (layers): ModuleList(
    (0): GATConv(1, 1024, heads=1)
    (1): ReLU()
  )
  (pred_layer): Linear(256, 1, bias=True)
)
Number of samples used: 30379
Number of samples used: 30379, with label: disease
Original Distrubution: [21657, 354, 4330, 72, 2888, 47]
Used Distrubution: [354, 354, 72, 72, 47, 47]
[[ 0 47]
 [ 0 47]]
[[ 0 47]
 [ 0 47]]
[[ 0 47]
 [ 0 47]]
[[ 0 47]
 [ 0 47]]
[[ 0 47]
 [ 0 47]]
[[ 0 47]
 [ 0 47]]
[[ 0 47]
 [ 0 47]]
[[ 0 47]
 [ 0 47]]
[[ 0 47]
 [ 0 47]]
[[ 0 47]
 [ 0 47]]
[[ 0 47]
 [ 0 47]]
[[ 0 47]
 [ 0 47]]
[[ 0 47]
 [ 0 47]]
[[ 0 47]
 [ 0 47]]
[[ 0 47]
 [ 0 47]]
[[ 0 47]
 [ 0 47]]
[[ 0 47]
 [ 0 47]]
[[ 0 47]
 [ 0 47]]
[[ 0 47]
 [ 0 47]]
[[ 0 47]
 [ 0 47]]
[[ 0 47]
 [ 0 47]]
[[ 0 47]
 [ 0 47]]
[[ 0 47]
 [ 0 47]]
[[ 0 47]
 [ 0 47]]
[[ 0 47]
 [ 0 47]]
[[ 0 47]
 [ 0 47]]
[[ 0 47]
 [ 0 47]]
[[ 0 47]
 [ 0 47]]
[[ 0 47]
 [ 0 47]]
[[ 0 47]
 [ 0 47]]
GNN(
  (fc): ModuleList(
    (0): Linear(512, 256, bias=True)
    (1): Linear(256, 256, bias=True)
    (2): Linear(256, 256, bias=True)
  )
  (input_encoder): Sequential(
    (0): Linear(in_features=3, out_features=1, bias=True)
    (1): Identity()
  )
  (layers): ModuleList(
    (0): GCNConv(1, 1024)
    (1): ELU(alpha=1.0)
    (2): LayerNorm(1024, mode=graph)
    (3): GCNConv(1024, 1024)
    (4): ELU(alpha=1.0)
    (5): LayerNorm(1024, mode=graph)
    (6): GCNConv(1024, 512)
    (7): ELU(alpha=1.0)
    (8): LayerNorm(512, mode=graph)
    (9): GCNConv(512, 512)
    (10): ELU(alpha=1.0)
    (11): LayerNorm(512, mode=graph)
  )
  (pred_layer): Linear(256, 1, bias=True)
)
Number of samples used: 30379
Number of samples used: 30379, with label: disease
Original Distrubution: [21657, 354, 4330, 72, 2888, 47]
Used Distrubution: [354, 354, 72, 72, 47, 47]
[[10  0]
 [21  1]]
[[16  1]
 [15  0]]
[[18  2]
 [10  0]]
[[11  0]
 [21  0]]
[[17  0]
 [15  0]]
[[19  0]
 [11  0]]
[[16  0]
 [16  0]]
[[11  0]
 [21  0]]
[[20  0]
 [10  0]]
[[16  0]
 [16  0]]
[[15  0]
…
[[ 0 15]
 [ 0 17]]
[[ 0 14]
 [ 0 18]]
[[ 0 18]
 [ 0 12]]
[[ 0 16]
 [ 0 16]]
[[ 0 20]
 [ 0 12]]
[[ 0 11]
 [ 0 19]]
[[ 0 12]
 [ 0 20]]
[[ 0 17]
 [ 0 15]]
[[ 0 18]
 [ 0 12]]
[[ 0 12]
 [ 0 20]]
[[ 0 18]
 [ 0 14]]
[[ 0 17]
 [ 0 13]]
[[ 0 19]
 [ 0 13]]
[[ 0 16]
 [ 0 16]]
[[ 0 12]
 [ 0 18]]
[[ 0 13]
 [ 0 19]]
[[ 0 16]
 [ 0 16]]
[[ 0 18]
 [ 0 12]]
[[ 0 16]
 [ 0 16]]
[[ 0 12]
 [ 0 20]]
[[ 0 19]
 [ 0 11]]
[[ 0 15]
 [ 0 17]]
[[ 0 17]
 [ 0 15]]
[[ 0 15]
 [ 0 15]]
[[ 0 16]
 [ 0 16]]
[[ 0 17]
 [ 0 15]]
[[ 0 14]
 [ 0 16]]
[[ 0 18]
 [ 0 14]]
[[ 0 14]
 [ 0 18]]
[[ 0 15]
 [ 0 15]]
GNN(
  (fc): ModuleList(
    (0): Linear(256, 256, bias=True)
  )
  (input_encoder): Sequential(
    (0): Linear(in_features=3, out_features=4, bias=True)
    (1): Identity()
  )
  (layers): ModuleList(
    (0): GCNConv(4, 1024)
    (1): ReLU()
    (2): LayerNorm(1024, mode=graph)
    (3): GCNConv(1024, 1024)
    (4): ReLU()
    (5): LayerNorm(1024, mode=graph)
    (6): GCNConv(1024, 512)
    (7): ReLU()
    (8): LayerNorm(512, mode=graph)
    (9): GCNConv(512, 512)
    (10): ReLU()
    (11): LayerNorm(512, mode=graph)
    (12): GCNConv(512, 256)
    (13): ReLU()
    (14): LayerNorm(256, mode=graph)
    (15): GCNConv(256, 256)
    (16): ReLU()
    (17): LayerNorm(256, mode=graph)
  )
  (pred_layer): Linear(256, 1, bias=True)
)
Number of samples used: 30379
Number of samples used: 30379, with label: disease
Original Distrubution: [21657, 354, 4330, 72, 2888, 47]
Used Distrubution: [354, 354, 72, 72, 47, 47]
[[22  7]
 [22 13]]
[[14  4]
 [ 8  4]]
[[24  7]
 [18 15]]
[[12  4]
 [12  2]]
[[28  5]
 [27  4]]
[[11  3]
 [12  4]]
[[29  6]
 [26  3]]
[[10  2]
 [14  4]]
[[28  5]
 [26  5]]
[[12  2]
 [15  1]]
[[23  5]
…
 [ 4 14]]
[[19 15]
 [14 16]]
[[10  3]
 [ 6 11]]
[[23 10]
 [20 11]]
[[13  1]
 [11  5]]
[[32  3]
 [26  3]]
[[ 9  3]
 [16  2]]
[[28  3]
 [31  2]]
[[14  2]
 [12  2]]
[[34  1]
 [27  2]]
[[11  1]
 [18  0]]
[[33  1]
 [29  1]]
[[12  1]
 [14  3]]
[[31  4]
 [26  3]]
[[10  2]
 [15  3]]
[[27  6]
 [27  4]]
[[14  0]
 [14  2]]
[[24  7]
 [17 16]]
[[11  5]
 [ 8  6]]
[[17 13]
 [ 7 27]]
[[ 6 11]
 [ 7  6]]
[[21 11]
 [12 20]]
[[9 6]
 [6 9]]
[[30  9]
 [16  9]]
[[ 5  3]
 [14  8]]
[[20 10]
 [17 17]]
[[12  5]
 [ 7  6]]
[[21 14]
 [12 17]]
[[11  1]
 [ 9  9]]
[[21 14]
 [14 15]]
[[ 6  6]
 [ 4 14]]
GNN(
  (fc): ModuleList(
    (0): Linear(1024, 1024, bias=True)
    (1): Linear(1024, 512, bias=True)
    (2): Linear(512, 512, bias=True)
    (3): Linear(512, 256, bias=True)
    (4): Linear(256, 256, bias=True)
    (5): Linear(256, 256, bias=True)
  )
  (input_encoder): Sequential(
    (0): Linear(in_features=3, out_features=32, bias=True)
    (1): Identity()
  )
  (layers): ModuleList(
    (0): GATConv(32, 1024, heads=1)
    (1): LeakyReLU(negative_slope=0.01)
  )
  (pred_layer): Linear(256, 1, bias=True)
)
Number of samples used: 30379
Number of samples used: 30379, with label: disease
Original Distrubution: [21657, 354, 4330, 72, 2888, 47]
Used Distrubution: [354, 354, 72, 72, 47, 47]
[[ 0 47]
 [ 0 47]]
[[ 0 47]
 [ 0 47]]
[[ 0 47]
 [ 0 47]]
[[ 0 47]
 [ 0 47]]
[[ 0 47]
 [ 0 47]]
[[ 0 47]
 [ 0 47]]
[[ 0 47]
 [ 0 47]]
[[ 0 47]
 [ 0 47]]
[[ 0 47]
 [ 0 47]]
[[ 0 47]
 [ 0 47]]
[[ 0 47]
 [ 0 47]]
[[ 0 47]
 [ 0 47]]
[[ 0 47]
 [ 0 47]]
[[ 0 47]
 [ 0 47]]
[[ 0 47]
 [ 0 47]]
[[ 0 47]
 [ 0 47]]
[[ 0 47]
 [ 0 47]]
[[ 0 47]
 [ 0 47]]
[[ 0 47]
 [ 0 47]]
[[ 0 47]
 [ 0 47]]
[[ 0 47]
 [ 0 47]]
[[ 0 47]
 [ 0 47]]
[[ 0 47]
 [ 0 47]]
[[ 0 47]
 [ 0 47]]
[[ 0 47]
 [ 0 47]]
[[ 0 47]
 [ 0 47]]
[[ 0 47]
 [ 0 47]]
[[ 0 47]
 [ 0 47]]
[[ 0 47]
 [ 0 47]]
[[ 0 47]
 [ 0 47]]
GNN(
  (fc): ModuleList(
    (0): Linear(512, 512, bias=True)
    (1): Linear(512, 256, bias=True)
    (2): Linear(256, 256, bias=True)
    (3): Linear(256, 256, bias=True)
  )
  (layers): ModuleList(
    (0): SAGEConv(3, 1024, aggr=mean)
    (1): Tanh()
    (2): LayerNorm(1024, mode=graph)
    (3): SAGEConv(1024, 1024, aggr=mean)
    (4): Tanh()
    (5): LayerNorm(1024, mode=graph)
    (6): SAGEConv(1024, 512, aggr=mean)
    (7): Tanh()
    (8): LayerNorm(512, mode=graph)
  )
  (pred_layer): Linear(256, 1, bias=True)
)
Number of samples used: 30379
Number of samples used: 30379, with label: disease
Original Distrubution: [21657, 354, 4330, 72, 2888, 47]
Used Distrubution: [354, 354, 72, 72, 47, 47]
[[ 0 47]
 [ 0 47]]
[[ 0 47]
 [ 0 47]]
[[ 0 47]
 [ 0 47]]
[[ 0 47]
 [ 0 47]]
[[ 0 47]
 [ 0 47]]
[[ 0 47]
 [ 0 47]]
[[23 24]
 [19 28]]
[[45  2]
 [46  1]]
[[47  0]
 [47  0]]
[[47  0]
 [47  0]]
[[47  0]
 [47  0]]
[[47  0]
 [47  0]]
[[47  0]
 [47  0]]
[[47  0]
 [47  0]]
[[47  0]
 [47  0]]
[[47  0]
 [47  0]]
[[47  0]
 [47  0]]
[[47  0]
 [47  0]]
[[47  0]
 [47  0]]
[[47  0]
 [47  0]]
[[47  0]
 [47  0]]
[[47  0]
 [47  0]]
[[47  0]
 [47  0]]
[[47  0]
 [47  0]]
[[47  0]
 [47  0]]
[[47  0]
 [47  0]]
[[47  0]
 [47  0]]
[[47  0]
 [47  0]]
[[47  0]
 [47  0]]
[[47  0]
 [47  0]]
GNN(
  (fc): ModuleList(
    (0): Linear(256, 256, bias=True)
  )
  (input_encoder): Sequential(
    (0): Linear(in_features=3, out_features=1, bias=True)
    (1): Identity()
  )
  (layers): ModuleList(
    (0): GCNConv(1, 1024)
    (1): ReLU()
    (2): LayerNorm(1024, mode=graph)
    (3): GCNConv(1024, 1024)
    (4): ReLU()
    (5): LayerNorm(1024, mode=graph)
    (6): GCNConv(1024, 512)
    (7): ReLU()
    (8): LayerNorm(512, mode=graph)
    (9): GCNConv(512, 512)
    (10): ReLU()
    (11): LayerNorm(512, mode=graph)
    (12): GCNConv(512, 256)
    (13): ReLU()
    (14): LayerNorm(256, mode=graph)
    (15): GCNConv(256, 256)
    (16): ReLU()
    (17): LayerNorm(256, mode=graph)
  )
  (pred_layer): Linear(256, 1, bias=True)
)
Number of samples used: 30379
Number of samples used: 30379, with label: disease
Original Distrubution: [21657, 354, 4330, 72, 2888, 47]
Used Distrubution: [354, 354, 72, 72, 47, 47]
[[ 0 20]
 [ 0 12]]
[[ 0 16]
 [ 0 16]]
[[ 0 11]
 [ 0 19]]
[[ 0 16]
 [ 0 16]]
[[ 0 14]
 [ 0 18]]
[[ 0 17]
 [ 0 13]]
[[ 0 18]
 [ 0 14]]
[[ 0 15]
 [ 0 17]]
[[ 0 14]
 [ 0 16]]
[[ 0 17]
 [ 0 15]]
[[ 0 19]
…
[[ 0 17]
 [ 0 15]]
[[ 0 16]
 [ 0 16]]
[[ 0 14]
 [ 0 16]]
[[ 0 17]
 [ 0 15]]
[[ 0 16]
 [ 0 16]]
[[ 0 14]
 [ 0 16]]
[[ 0 22]
 [ 0 10]]
[[ 0 17]
 [ 0 15]]
[[ 0  8]
 [ 0 22]]
[[ 0 15]
 [ 0 17]]
[[ 0 16]
 [ 0 16]]
[[ 0 16]
 [ 0 14]]
[[ 0 16]
 [ 0 16]]
[[ 0 15]
 [ 0 17]]
[[ 0 16]
 [ 0 14]]
[[ 0 14]
 [ 0 18]]
[[ 0 16]
 [ 0 16]]
[[ 0 17]
 [ 0 13]]
[[ 0 15]
 [ 0 17]]
[[ 0 16]
 [ 0 16]]
[[ 0 16]
 [ 0 14]]
[[ 0 17]
 [ 0 15]]
[[ 0 15]
 [ 0 17]]
[[ 0 15]
 [ 0 15]]
[[ 0 16]
 [ 0 16]]
[[ 0 17]
 [ 0 15]]
[[ 0 14]
 [ 0 16]]
[[ 0 14]
 [ 0 18]]
[[ 0 17]
 [ 0 15]]
[[ 0 16]
 [ 0 14]]
GNN(
  (fc): ModuleList(
    (0): Linear(1024, 512, bias=True)
    (1): Linear(512, 512, bias=True)
    (2): Linear(512, 256, bias=True)
    (3): Linear(256, 256, bias=True)
    (4): Linear(256, 256, bias=True)
  )
  (input_encoder): Sequential(
    (0): Linear(in_features=3, out_features=1, bias=True)
    (1): Identity()
  )
  (layers): ModuleList(
    (0): SAGEConv(1, 1024, aggr=mean)
    (1): ReLU()
    (2): SAGEConv(1024, 1024, aggr=mean)
    (3): ReLU()
  )
  (pred_layer): Linear(256, 1, bias=True)
)
Number of samples used: 30379
Number of samples used: 30379, with label: disease
Original Distrubution: [21657, 354, 4330, 72, 2888, 47]
Used Distrubution: [354, 354, 72, 72, 47, 47]
[[ 0 15]
 [ 0 17]]
[[ 0 18]
 [ 0 14]]
[[ 0 14]
 [ 0 16]]
[[ 0 14]
 [ 0 18]]
[[ 0 16]
 [ 0 16]]
[[ 0 17]
 [ 0 13]]
[[ 0 15]
 [ 0 17]]
[[ 0 17]
 [ 0 15]]
[[ 0 15]
 [ 0 15]]
[[ 0 14]
 [ 0 18]]
[[ 0 18]
…
[[ 0 16]
 [ 0 16]]
[[ 0 15]
 [ 0 17]]
[[ 0 16]
 [ 0 14]]
[[ 0 15]
 [ 0 17]]
[[ 0 15]
 [ 0 17]]
[[ 0 17]
 [ 0 13]]
[[ 0 18]
 [ 0 14]]
[[ 0 15]
 [ 0 17]]
[[ 0 14]
 [ 0 16]]
[[ 0 17]
 [ 0 15]]
[[ 0 16]
 [ 0 16]]
[[ 0 14]
 [ 0 16]]
[[ 0 19]
 [ 0 13]]
[[ 0 11]
 [ 0 21]]
[[ 0 17]
 [ 0 13]]
[[ 0 12]
 [ 0 20]]
[[ 0 19]
 [ 0 13]]
[[ 0 16]
 [ 0 14]]
[[ 0 10]
 [ 0 22]]
[[ 0 18]
 [ 0 14]]
[[ 0 19]
 [ 0 11]]
[[ 0 16]
 [ 0 16]]
[[ 0 18]
 [ 0 14]]
[[ 0 13]
 [ 0 17]]
[[ 0 14]
 [ 0 18]]
[[ 0 17]
 [ 0 15]]
[[ 0 16]
 [ 0 14]]
[[ 0 16]
 [ 0 16]]
[[ 0 14]
 [ 0 18]]
[[ 0 17]
 [ 0 13]]
GNN(
  (fc): ModuleList(
    (0): Linear(256, 256, bias=True)
  )
  (input_encoder): Sequential(
    (0): Linear(in_features=3, out_features=1, bias=True)
    (1): Identity()
  )
  (layers): ModuleList(
    (0): SAGEConv(1, 1024, aggr=mean)
    (1): LeakyReLU(negative_slope=0.01)
    (2): SAGEConv(1024, 1024, aggr=mean)
    (3): LeakyReLU(negative_slope=0.01)
    (4): SAGEConv(1024, 512, aggr=mean)
    (5): LeakyReLU(negative_slope=0.01)
    (6): SAGEConv(512, 512, aggr=mean)
    (7): LeakyReLU(negative_slope=0.01)
    (8): SAGEConv(512, 256, aggr=mean)
    (9): LeakyReLU(negative_slope=0.01)
    (10): SAGEConv(256, 256, aggr=mean)
    (11): LeakyReLU(negative_slope=0.01)
  )
  (pred_layer): Linear(256, 1, bias=True)
)
Number of samples used: 30379
Number of samples used: 30379, with label: disease
Original Distrubution: [21657, 354, 4330, 72, 2888, 47]
Used Distrubution: [354, 354, 72, 72, 47, 47]
[[ 0 47]
 [ 0 47]]
[[ 0 47]
 [ 0 47]]
[[ 0 47]
 [ 0 47]]
[[ 0 47]
 [ 0 47]]
[[ 0 47]
 [ 0 47]]
[[ 0 47]
 [ 0 47]]
[[ 0 47]
 [ 0 47]]
[[ 0 47]
 [ 0 47]]
[[ 0 47]
 [ 0 47]]
[[ 0 47]
 [ 0 47]]
[[ 0 47]
 [ 0 47]]
[[ 0 47]
 [ 0 47]]
[[ 0 47]
 [ 0 47]]
[[ 0 47]
 [ 0 47]]
[[ 0 47]
 [ 0 47]]
[[ 0 47]
 [ 0 47]]
[[ 0 47]
 [ 0 47]]
[[ 0 47]
 [ 0 47]]
[[ 0 47]
 [ 0 47]]
[[ 0 47]
 [ 0 47]]
[[ 0 47]
 [ 0 47]]
[[ 0 47]
 [ 0 47]]
[[ 0 47]
 [ 0 47]]
[[ 0 47]
 [ 0 47]]
[[ 0 47]
 [ 0 47]]
[[ 0 47]
 [ 0 47]]
[[ 0 47]
 [ 0 47]]
[[ 0 47]
 [ 0 47]]
[[ 0 47]
 [ 0 47]]
[[ 0 47]
 [ 0 47]]
GNN(
  (fc): ModuleList(
    (0): Linear(256, 256, bias=True)
  )
  (layers): ModuleList(
    (0): SAGEConv(3, 1024, aggr=mean)
    (1): LeakyReLU(negative_slope=0.01)
    (2): LayerNorm(1024, mode=graph)
    (3): SAGEConv(1024, 1024, aggr=mean)
    (4): LeakyReLU(negative_slope=0.01)
    (5): LayerNorm(1024, mode=graph)
    (6): SAGEConv(1024, 512, aggr=mean)
    (7): LeakyReLU(negative_slope=0.01)
    (8): LayerNorm(512, mode=graph)
    (9): SAGEConv(512, 512, aggr=mean)
    (10): LeakyReLU(negative_slope=0.01)
    (11): LayerNorm(512, mode=graph)
    (12): SAGEConv(512, 256, aggr=mean)
    (13): LeakyReLU(negative_slope=0.01)
    (14): LayerNorm(256, mode=graph)
    (15): SAGEConv(256, 256, aggr=mean)
    (16): LeakyReLU(negative_slope=0.01)
    (17): LayerNorm(256, mode=graph)
  )
  (pred_layer): Linear(256, 1, bias=True)
)
Number of samples used: 30379
Number of samples used: 30379, with label: disease
Original Distrubution: [21657, 354, 4330, 72, 2888, 47]
Used Distrubution: [354, 354, 72, 72, 47, 47]
[[31  0]
 [33  0]]
[[16  0]
 [14  0]]
[[28  0]
 [36  0]]
[[19  0]
 [11  0]]
[[33  0]
 [31  0]]
[[14  0]
 [16  0]]
[[33  0]
 [31  0]]
[[14  0]
 [16  0]]
[[34  0]
 [30  0]]
[[13  0]
 [17  0]]
[[31  0]
…
 [ 7  6]]
[[ 7 22]
 [ 9 26]]
[[ 4 14]
 [ 3  9]]
[[ 4 23]
 [ 9 28]]
[[ 5 15]
 [ 1  9]]
[[10 20]
 [12 22]]
[[ 5 12]
 [ 5  8]]
[[ 8 23]
 [14 19]]
[[7 9]
 [7 7]]
[[ 4 29]
 [ 3 28]]
[[ 3 11]
 [ 2 14]]
[[ 3 28]
 [ 3 30]]
[[ 2 14]
 [ 1 13]]
[[ 2 29]
 [ 3 30]]
[[ 1 15]
 [ 1 13]]
[[ 3 31]
 [ 4 26]]
[[ 1 12]
 [ 0 17]]
[[ 3 31]
 [ 3 27]]
[[ 0 13]
 [ 1 16]]
[[ 1 34]
 [ 2 27]]
[[ 1 11]
 [ 0 18]]
[[ 1 30]
 [ 0 33]]
[[ 0 16]
 [ 0 14]]
[[ 1 29]
 [ 0 34]]
[[ 0 17]
 [ 0 13]]
[[ 0 34]
 [ 0 30]]
[[ 1 12]
 [ 0 17]]
[[ 1 33]
 [ 0 30]]
[[ 0 13]
 [ 0 17]]
[[ 1 32]
 [ 0 31]]
[[ 0 14]
 [ 0 16]]
GNN(
  (fc): ModuleList(
    (0): Linear(1024, 1024, bias=True)
    (1): Linear(1024, 512, bias=True)
    (2): Linear(512, 512, bias=True)
    (3): Linear(512, 256, bias=True)
    (4): Linear(256, 256, bias=True)
    (5): Linear(256, 256, bias=True)
  )
  (input_encoder): Sequential(
    (0): Linear(in_features=3, out_features=1, bias=True)
    (1): Identity()
  )
  (layers): ModuleList(
    (0): SAGEConv(1, 1024, aggr=mean)
    (1): ReLU()
  )
  (pred_layer): Linear(256, 1, bias=True)
)
Number of samples used: 30379
Number of samples used: 30379, with label: disease
Original Distrubution: [21657, 354, 4330, 72, 2888, 47]
Used Distrubution: [354, 354, 72, 72, 47, 47]
[[17  0]
 [15  0]]
[[17  0]
 [15  0]]
[[13  0]
 [17  0]]
[[15  0]
 [17  0]]
[[17  0]
 [15  0]]
[[15  0]
 [15  0]]
[[17  0]
 [15  0]]
[[15  0]
 [17  0]]
[[15  0]
 [15  0]]
[[14  0]
 [18  0]]
[[14  0]
…
[[15  0]
 [17  0]]
[[17  0]
 [15  0]]
[[15  0]
 [15  0]]
[[13  0]
 [19  0]]
[[17  0]
 [15  0]]
[[17  0]
 [13  0]]
[[21  0]
 [11  0]]
[[13  0]
 [19  0]]
[[13  0]
 [17  0]]
[[13  0]
 [19  0]]
[[19  0]
 [13  0]]
[[15  0]
 [15  0]]
[[17  0]
 [15  0]]
[[16  0]
 [16  0]]
[[14  0]
 [16  0]]
[[13  0]
 [19  0]]
[[16  0]
 [16  0]]
[[18  0]
 [12  0]]
[[17  0]
 [15  0]]
[[16  0]
 [16  0]]
[[14  0]
 [16  0]]
[[20  0]
 [12  0]]
[[13  0]
 [19  0]]
[[14  0]
 [16  0]]
[[18  0]
 [14  0]]
[[16  0]
 [16  0]]
[[13  0]
 [17  0]]
[[18  0]
 [14  0]]
[[13  0]
 [19  0]]
[[16  0]
 [14  0]]
GNN(
  (fc): ModuleList(
    (0): Linear(1024, 1024, bias=True)
    (1): Linear(1024, 512, bias=True)
    (2): Linear(512, 512, bias=True)
    (3): Linear(512, 256, bias=True)
    (4): Linear(256, 256, bias=True)
    (5): Linear(256, 256, bias=True)
  )
  (input_encoder): Sequential(
    (0): Linear(in_features=3, out_features=1, bias=True)
    (1): Identity()
  )
  (layers): ModuleList(
    (0): GCNConv(1, 1024)
    (1): ELU(alpha=1.0)
  )
  (pred_layer): Linear(256, 1, bias=True)
)
Number of samples used: 30379
Number of samples used: 30379, with label: disease
Original Distrubution: [21657, 354, 4330, 72, 2888, 47]
Used Distrubution: [354, 354, 72, 72, 47, 47]
[[47  0]
 [47  0]]
[[47  0]
 [47  0]]
[[47  0]
 [47  0]]
[[47  0]
 [47  0]]
[[47  0]
 [47  0]]
[[47  0]
 [47  0]]
[[47  0]
 [47  0]]
[[47  0]
 [47  0]]
[[47  0]
 [47  0]]
[[47  0]
 [47  0]]
[[47  0]
 [47  0]]
[[47  0]
 [47  0]]
[[47  0]
 [47  0]]
[[47  0]
 [47  0]]
[[47  0]
 [47  0]]
[[47  0]
 [47  0]]
[[47  0]
 [47  0]]
[[47  0]
 [47  0]]
[[47  0]
 [47  0]]
[[47  0]
 [47  0]]
[[47  0]
 [47  0]]
[[47  0]
 [47  0]]
[[47  0]
 [47  0]]
[[47  0]
 [47  0]]
[[47  0]
 [47  0]]
[[47  0]
 [47  0]]
[[47  0]
 [47  0]]
[[47  0]
 [47  0]]
[[47  0]
 [47  0]]
[[47  0]
 [47  0]]
GNN(
  (fc): ModuleList(
    (0): Linear(1024, 1024, bias=True)
    (1): Linear(1024, 512, bias=True)
    (2): Linear(512, 512, bias=True)
    (3): Linear(512, 256, bias=True)
    (4): Linear(256, 256, bias=True)
    (5): Linear(256, 256, bias=True)
  )
  (input_encoder): Sequential(
    (0): Linear(in_features=3, out_features=516, bias=True)
    (1): Identity()
  )
  (layers): ModuleList(
    (0): GATConv(516, 1024, heads=1)
    (1): LeakyReLU(negative_slope=0.01)
  )
  (pred_layer): Linear(256, 1, bias=True)
)
Number of samples used: 30379
Number of samples used: 30379, with label: disease
Original Distrubution: [21657, 354, 4330, 72, 2888, 47]
Used Distrubution: [354, 354, 72, 72, 47, 47]
[[ 0 16]
 [ 0 16]]
[[ 0 13]
 [ 0 19]]
[[ 0 18]
 [ 0 12]]
[[ 0 14]
 [ 0 18]]
[[ 0 19]
 [ 0 13]]
[[ 0 14]
 [ 0 16]]
[[ 0 21]
 [ 0 11]]
[[ 0 13]
 [ 0 19]]
[[ 0 13]
 [ 0 17]]
[[ 0 17]
 [ 0 15]]
[[ 0 18]
…
[[ 0 13]
 [ 0 19]]
[[ 0 16]
 [ 0 16]]
[[ 0 18]
 [ 0 12]]
[[ 0 18]
 [ 0 14]]
[[ 0 15]
 [ 0 17]]
[[ 0 14]
 [ 0 16]]
[[ 0 17]
 [ 0 15]]
[[ 0 15]
 [ 0 17]]
[[ 0 15]
 [ 0 15]]
[[ 0 20]
 [ 0 12]]
[[ 0 14]
 [ 0 18]]
[[ 0 13]
 [ 0 17]]
[[ 0 14]
 [ 0 18]]
[[ 0 16]
 [ 0 16]]
[[ 0 17]
 [ 0 13]]
[[ 0 17]
 [ 0 15]]
[[ 0 16]
 [ 0 16]]
[[ 0 14]
 [ 0 16]]
[[ 0 14]
 [ 0 18]]
[[ 0 16]
 [ 0 16]]
[[ 0 17]
 [ 0 13]]
[[ 0 16]
 [ 0 16]]
[[ 0 14]
 [ 0 18]]
[[ 0 17]
 [ 0 13]]
[[ 0 20]
 [ 0 12]]
[[ 0 14]
 [ 0 18]]
[[ 0 13]
 [ 0 17]]
[[ 0 16]
 [ 0 16]]
[[ 0 15]
 [ 0 17]]
[[ 0 16]
 [ 0 14]]
GNN(
  (fc): ModuleList(
    (0): Linear(1024, 512, bias=True)
    (1): Linear(512, 512, bias=True)
    (2): Linear(512, 256, bias=True)
    (3): Linear(256, 256, bias=True)
    (4): Linear(256, 256, bias=True)
  )
  (input_encoder): Sequential(
    (0): Linear(in_features=3, out_features=32, bias=True)
    (1): Identity()
  )
  (layers): ModuleList(
    (0): GCNConv(32, 1024)
    (1): LeakyReLU(negative_slope=0.01)
    (2): LayerNorm(1024, mode=graph)
    (3): GCNConv(1024, 1024)
    (4): LeakyReLU(negative_slope=0.01)
    (5): LayerNorm(1024, mode=graph)
  )
  (pred_layer): Linear(256, 1, bias=True)
)
Number of samples used: 30379
Number of samples used: 30379, with label: disease
Original Distrubution: [21657, 354, 4330, 72, 2888, 47]
Used Distrubution: [354, 354, 72, 72, 47, 47]
[[47  0]
 [47  0]]
[[47  0]
 [47  0]]
[[47  0]
 [47  0]]
[[47  0]
 [47  0]]
[[47  0]
 [47  0]]
[[47  0]
 [47  0]]
[[47  0]
 [47  0]]
[[47  0]
 [47  0]]
[[47  0]
 [47  0]]
[[47  0]
 [47  0]]
[[47  0]
 [47  0]]
[[47  0]
 [47  0]]
[[47  0]
 [47  0]]
[[47  0]
 [47  0]]
[[47  0]
 [47  0]]
[[47  0]
 [47  0]]
[[47  0]
 [47  0]]
[[47  0]
 [47  0]]
[[47  0]
 [47  0]]
[[47  0]
 [47  0]]
[[47  0]
 [47  0]]
[[47  0]
 [47  0]]
[[47  0]
 [47  0]]
[[47  0]
 [47  0]]
[[47  0]
 [47  0]]
[[47  0]
 [47  0]]
[[47  0]
 [47  0]]
[[47  0]
 [47  0]]
[[47  0]
 [47  0]]
[[47  0]
 [47  0]]
GNN(
  (fc): ModuleList(
    (0): Linear(1024, 1024, bias=True)
    (1): Linear(1024, 512, bias=True)
    (2): Linear(512, 512, bias=True)
    (3): Linear(512, 256, bias=True)
    (4): Linear(256, 256, bias=True)
    (5): Linear(256, 256, bias=True)
  )
  (input_encoder): Sequential(
    (0): Linear(in_features=3, out_features=4, bias=True)
    (1): Identity()
  )
  (layers): ModuleList(
    (0): SAGEConv(4, 1024, aggr=mean)
    (1): ReLU()
    (2): LayerNorm(1024, mode=graph)
  )
  (pred_layer): Linear(256, 1, bias=True)
)
Number of samples used: 30379
Number of samples used: 30379, with label: disease
Original Distrubution: [21657, 354, 4330, 72, 2888, 47]
Used Distrubution: [354, 354, 72, 72, 47, 47]
[[17  0]
 [15  0]]
[[16  0]
 [16  0]]
[[14  0]
 [16  0]]
[[17  0]
 [15  0]]
[[14  0]
 [18  0]]
[[16  0]
 [14  0]]
[[14  0]
 [18  0]]
[[15  0]
 [17  0]]
[[18  0]
 [12  0]]
[[15  0]
 [17  0]]
[[18  0]
…
[[13  0]
 [19  0]]
[[16  0]
 [16  0]]
[[18  0]
 [12  0]]
[[14  0]
 [18  0]]
[[21  0]
 [11  0]]
[[12  0]
 [18  0]]
[[16  0]
 [16  0]]
[[13  0]
 [19  0]]
[[18  0]
 [12  0]]
[[14  0]
 [18  0]]
[[17  0]
 [15  0]]
[[16  0]
 [14  0]]
[[18  0]
 [14  0]]
[[11  0]
 [21  0]]
[[18  0]
 [12  0]]
[[18  0]
 [14  0]]
[[17  0]
 [15  0]]
[[12  0]
 [18  0]]
[[15  0]
 [17  0]]
[[14  0]
 [18  0]]
[[18  0]
 [12  0]]
[[15  0]
 [17  0]]
[[14  0]
 [18  0]]
[[18  0]
 [12  0]]
[[19  0]
 [13  0]]
[[16  0]
 [16  0]]
[[12  0]
 [18  0]]
[[15  0]
 [17  0]]
[[16  0]
 [16  0]]
[[16  0]
 [14  0]]
GNN(
  (fc): ModuleList(
    (0): Linear(256, 256, bias=True)
  )
  (input_encoder): Sequential(
    (0): Linear(in_features=3, out_features=1, bias=True)
    (1): Identity()
  )
  (layers): ModuleList(
    (0): SAGEConv(1, 1024, aggr=mean)
    (1): Tanh()
    (2): LayerNorm(1024, mode=graph)
    (3): SAGEConv(1024, 1024, aggr=mean)
    (4): Tanh()
    (5): LayerNorm(1024, mode=graph)
    (6): SAGEConv(1024, 512, aggr=mean)
    (7): Tanh()
    (8): LayerNorm(512, mode=graph)
    (9): SAGEConv(512, 512, aggr=mean)
    (10): Tanh()
    (11): LayerNorm(512, mode=graph)
    (12): SAGEConv(512, 256, aggr=mean)
    (13): Tanh()
    (14): LayerNorm(256, mode=graph)
    (15): SAGEConv(256, 256, aggr=mean)
    (16): Tanh()
    (17): LayerNorm(256, mode=graph)
  )
  (pred_layer): Linear(256, 1, bias=True)
)
Number of samples used: 30379
Number of samples used: 30379, with label: disease
Original Distrubution: [21657, 354, 4330, 72, 2888, 47]
Used Distrubution: [354, 354, 72, 72, 47, 47]
[[ 0 16]
 [ 0 16]]
[[ 0 15]
 [ 0 17]]
[[ 0 16]
 [ 0 14]]
[[ 9  5]
 [13  5]]
[[ 7 10]
 [10  5]]
[[12  4]
 [11  3]]
[[ 0 19]
 [ 0 13]]
[[ 0 17]
 [ 0 15]]
[[ 0 11]
 [ 0 19]]
[[15  1]
 [16  0]]
[[19  0]
…
[[ 7  6]
 [15  4]]
[[ 9  7]
 [ 5 11]]
[[ 6 12]
 [ 4  8]]
[[ 0 16]
 [ 0 16]]
[[ 0 17]
 [ 0 15]]
[[ 0 14]
 [ 0 16]]
[[ 0 19]
 [ 0 13]]
[[ 0 15]
 [ 0 17]]
[[ 0 13]
 [ 0 17]]
[[ 0 16]
 [ 0 16]]
[[ 0 16]
 [ 0 16]]
[[ 0 15]
 [ 0 15]]
[[ 0 16]
 [ 0 16]]
[[ 0 16]
 [ 0 16]]
[[ 0 15]
 [ 0 15]]
[[ 0 21]
 [ 0 11]]
[[ 0 13]
 [ 0 19]]
[[ 0 13]
 [ 0 17]]
[[ 0 21]
 [ 0 11]]
[[ 0 17]
 [ 0 15]]
[[ 0  9]
 [ 0 21]]
[[ 0 18]
 [ 0 14]]
[[ 0 16]
 [ 0 16]]
[[ 0 13]
 [ 0 17]]
[[ 2 17]
 [ 1 12]]
[[ 1 11]
 [ 1 19]]
[[ 0 16]
 [ 0 14]]
[[ 1 11]
 [ 8 12]]
[[ 4 14]
 [ 5  9]]
[[ 4 13]
 [ 3 10]]
GNN(
  (fc): ModuleList(
    (0): Linear(1024, 1024, bias=True)
    (1): Linear(1024, 512, bias=True)
    (2): Linear(512, 512, bias=True)
    (3): Linear(512, 256, bias=True)
    (4): Linear(256, 256, bias=True)
    (5): Linear(256, 256, bias=True)
  )
  (layers): ModuleList(
    (0): GATConv(3, 1024, heads=1)
    (1): LeakyReLU(negative_slope=0.01)
  )
  (pred_layer): Linear(256, 1, bias=True)
)
Number of samples used: 30379
Number of samples used: 30379, with label: disease
Original Distrubution: [21657, 354, 4330, 72, 2888, 47]
Used Distrubution: [354, 354, 72, 72, 47, 47]
[[ 0 47]
 [ 0 47]]
[[ 0 47]
 [ 0 47]]
[[ 0 47]
 [ 0 47]]
[[ 0 47]
 [ 0 47]]
[[ 0 47]
 [ 0 47]]
[[ 0 47]
 [ 0 47]]
[[ 0 47]
 [ 0 47]]
[[ 0 47]
 [ 0 47]]
[[ 0 47]
 [ 0 47]]
[[ 0 47]
 [ 0 47]]
[[ 0 47]
 [ 0 47]]
[[ 0 47]
 [ 0 47]]
[[ 0 47]
 [ 0 47]]
[[ 0 47]
 [ 0 47]]
[[ 0 47]
 [ 0 47]]
[[ 0 47]
 [ 0 47]]
[[ 0 47]
 [ 0 47]]
[[ 0 47]
 [ 0 47]]
[[ 0 47]
 [ 0 47]]
[[ 0 47]
 [ 0 47]]
[[ 0 47]
 [ 0 47]]
[[ 0 47]
 [ 0 47]]
[[ 0 47]
 [ 0 47]]
[[ 0 47]
 [ 0 47]]
[[ 0 47]
 [ 0 47]]
[[ 0 47]
 [ 0 47]]
[[ 0 47]
 [ 0 47]]
[[ 0 47]
 [ 0 47]]
[[ 0 47]
 [ 0 47]]
[[ 0 47]
 [ 0 47]]
GNN(
  (fc): ModuleList(
    (0): Linear(1024, 512, bias=True)
    (1): Linear(512, 512, bias=True)
    (2): Linear(512, 256, bias=True)
    (3): Linear(256, 256, bias=True)
    (4): Linear(256, 256, bias=True)
  )
  (input_encoder): Sequential(
    (0): Linear(in_features=3, out_features=16, bias=True)
    (1): Identity()
  )
  (layers): ModuleList(
    (0): GCNConv(16, 1024)
    (1): LeakyReLU(negative_slope=0.01)
    (2): GCNConv(1024, 1024)
    (3): LeakyReLU(negative_slope=0.01)
  )
  (pred_layer): Linear(256, 1, bias=True)
)
Number of samples used: 30379
Number of samples used: 30379, with label: disease
Original Distrubution: [21657, 354, 4330, 72, 2888, 47]
Used Distrubution: [354, 354, 72, 72, 47, 47]
[[ 0 13]
 [ 0 19]]
[[ 0 14]
 [ 0 18]]
[[ 0 20]
 [ 0 10]]
[[ 0 18]
 [ 0 14]]
[[ 0 17]
 [ 0 15]]
[[ 0 12]
 [ 0 18]]
[[ 0 15]
 [ 0 17]]
[[ 0 18]
 [ 0 14]]
[[ 0 14]
 [ 0 16]]
[[ 0 15]
 [ 0 17]]
[[ 0 16]
…
[[ 0 15]
 [ 0 17]]
[[ 0 19]
 [ 0 13]]
[[ 0 13]
 [ 0 17]]
[[ 0 13]
 [ 0 19]]
[[ 0 15]
 [ 0 17]]
[[ 0 19]
 [ 0 11]]
[[ 0 15]
 [ 0 17]]
[[ 0 21]
 [ 0 11]]
[[ 0 11]
 [ 0 19]]
[[ 0 17]
 [ 0 15]]
[[ 0 16]
 [ 0 16]]
[[ 0 14]
 [ 0 16]]
[[ 0 14]
 [ 0 18]]
[[ 0 15]
 [ 0 17]]
[[ 0 18]
 [ 0 12]]
[[ 0 18]
 [ 0 14]]
[[ 0 15]
 [ 0 17]]
[[ 0 14]
 [ 0 16]]
[[ 0 20]
 [ 0 12]]
[[ 0 15]
 [ 0 17]]
[[ 0 12]
 [ 0 18]]
[[ 0 20]
 [ 0 12]]
[[ 0 11]
 [ 0 21]]
[[ 0 16]
 [ 0 14]]
[[ 0 17]
 [ 0 15]]
[[ 0 14]
 [ 0 18]]
[[ 0 16]
 [ 0 14]]
[[ 0 15]
 [ 0 17]]
[[ 0 12]
 [ 0 20]]
[[ 0 20]
 [ 0 10]]
GNN(
  (fc): ModuleList(
    (0): Linear(1024, 512, bias=True)
    (1): Linear(512, 512, bias=True)
    (2): Linear(512, 256, bias=True)
    (3): Linear(256, 256, bias=True)
    (4): Linear(256, 256, bias=True)
  )
  (layers): ModuleList(
    (0): GATConv(3, 1024, heads=1)
    (1): LeakyReLU(negative_slope=0.01)
    (2): LayerNorm(1024, mode=graph)
    (3): GATConv(1024, 1024, heads=1)
    (4): LeakyReLU(negative_slope=0.01)
    (5): LayerNorm(1024, mode=graph)
  )
  (pred_layer): Linear(256, 1, bias=True)
)
Number of samples used: 30379
Number of samples used: 30379, with label: disease
Original Distrubution: [21657, 354, 4330, 72, 2888, 47]
Used Distrubution: [354, 354, 72, 72, 47, 47]
[[47  0]
 [47  0]]
[[47  0]
 [47  0]]
[[47  0]
 [47  0]]
[[47  0]
 [47  0]]
[[47  0]
 [47  0]]
[[47  0]
 [47  0]]
[[47  0]
 [47  0]]
[[47  0]
 [47  0]]
[[47  0]
 [47  0]]
[[47  0]
 [47  0]]
[[47  0]
 [47  0]]
[[47  0]
 [47  0]]
[[47  0]
 [47  0]]
[[47  0]
 [47  0]]
[[47  0]
 [47  0]]
[[47  0]
 [47  0]]
[[47  0]
 [47  0]]
[[47  0]
 [47  0]]
[[47  0]
 [47  0]]
[[47  0]
 [47  0]]
[[47  0]
 [47  0]]
[[47  0]
 [47  0]]
[[47  0]
 [47  0]]
[[47  0]
 [47  0]]
[[47  0]
 [47  0]]
[[47  0]
 [47  0]]
[[47  0]
 [47  0]]
[[47  0]
 [47  0]]
[[47  0]
 [47  0]]
[[47  0]
 [47  0]]
GNN(
  (fc): ModuleList(
    (0): Linear(1024, 512, bias=True)
    (1): Linear(512, 512, bias=True)
    (2): Linear(512, 256, bias=True)
    (3): Linear(256, 256, bias=True)
    (4): Linear(256, 256, bias=True)
  )
  (layers): ModuleList(
    (0): GATConv(3, 1024, heads=1)
    (1): LeakyReLU(negative_slope=0.01)
    (2): LayerNorm(1024, mode=graph)
    (3): GATConv(1024, 1024, heads=1)
    (4): LeakyReLU(negative_slope=0.01)
    (5): LayerNorm(1024, mode=graph)
  )
  (pred_layer): Linear(256, 1, bias=True)
)
Number of samples used: 30379
Number of samples used: 30379, with label: disease
Original Distrubution: [21657, 354, 4330, 72, 2888, 47]
Used Distrubution: [354, 354, 72, 72, 47, 47]
[[13  0]
 [19  0]]
[[17  0]
 [15  0]]
[[17  0]
 [13  0]]
[[17  0]
 [15  0]]
[[16  0]
 [16  0]]
[[14  0]
 [16  0]]
[[17  0]
 [15  0]]
[[17  0]
 [15  0]]
[[13  0]
 [17  0]]
[[17  0]
 [15  0]]
[[16  0]
…
[[13  0]
 [19  0]]
[[16  0]
 [16  0]]
[[18  0]
 [12  0]]
[[18  0]
 [14  0]]
[[17  0]
 [15  0]]
[[12  0]
 [18  0]]
[[15  0]
 [17  0]]
[[17  0]
 [15  0]]
[[15  0]
 [15  0]]
[[20  0]
 [12  0]]
[[13  0]
 [19  0]]
[[14  0]
 [16  0]]
[[16  0]
 [16  0]]
[[16  0]
 [16  0]]
[[15  0]
 [15  0]]
[[17  0]
 [15  0]]
[[17  0]
 [15  0]]
[[13  0]
 [17  0]]
[[16  0]
 [16  0]]
[[19  0]
 [13  0]]
[[12  0]
 [18  0]]
[[15  0]
 [17  0]]
[[17  0]
 [15  0]]
[[15  0]
 [15  0]]
[[17  0]
 [15  0]]
[[17  0]
 [15  0]]
[[13  0]
 [17  0]]
[[16  0]
 [16  0]]
[[15  0]
 [17  0]]
[[16  0]
 [14  0]]
GNN(
  (fc): ModuleList(
    (0): Linear(256, 256, bias=True)
    (1): Linear(256, 256, bias=True)
  )
  (layers): ModuleList(
    (0): SAGEConv(3, 1024, aggr=mean)
    (1): LeakyReLU(negative_slope=0.01)
    (2): LayerNorm(1024, mode=graph)
    (3): SAGEConv(1024, 1024, aggr=mean)
    (4): LeakyReLU(negative_slope=0.01)
    (5): LayerNorm(1024, mode=graph)
    (6): SAGEConv(1024, 512, aggr=mean)
    (7): LeakyReLU(negative_slope=0.01)
    (8): LayerNorm(512, mode=graph)
    (9): SAGEConv(512, 512, aggr=mean)
    (10): LeakyReLU(negative_slope=0.01)
    (11): LayerNorm(512, mode=graph)
    (12): SAGEConv(512, 256, aggr=mean)
    (13): LeakyReLU(negative_slope=0.01)
    (14): LayerNorm(256, mode=graph)
  )
  (pred_layer): Linear(256, 1, bias=True)
)
Number of samples used: 30379
Number of samples used: 30379, with label: disease
Original Distrubution: [21657, 354, 4330, 72, 2888, 47]
Used Distrubution: [354, 354, 72, 72, 47, 47]
[[24 23]
 [25 22]]
[[24 23]
 [25 22]]
[[25 22]
 [25 22]]
[[31 16]
 [25 22]]
[[31 16]
 [26 21]]
[[32 15]
 [28 19]]
[[34 13]
 [30 17]]
[[34 13]
 [30 17]]
[[35 12]
 [30 17]]
[[36 11]
 [31 16]]
[[37 10]
 [33 14]]
[[37 10]
 [33 14]]
[[38  9]
 [34 13]]
[[40  7]
 [36 11]]
[[40  7]
 [36 11]]
[[42  5]
 [36 11]]
[[42  5]
 [36 11]]
[[43  4]
 [37 10]]
[[44  3]
 [38  9]]
[[44  3]
 [38  9]]
[[44  3]
 [38  9]]
[[44  3]
 [38  9]]
[[44  3]
 [39  8]]
[[44  3]
 [41  6]]
[[45  2]
 [43  4]]
[[45  2]
 [43  4]]
[[45  2]
 [43  4]]
[[45  2]
 [43  4]]
[[45  2]
 [43  4]]
[[45  2]
 [44  3]]
GNN(
  (fc): ModuleList(
    (0): Linear(512, 512, bias=True)
    (1): Linear(512, 256, bias=True)
    (2): Linear(256, 256, bias=True)
    (3): Linear(256, 256, bias=True)
  )
  (layers): ModuleList(
    (0): SAGEConv(3, 1024, aggr=mean)
    (1): LeakyReLU(negative_slope=0.01)
    (2): LayerNorm(1024, mode=graph)
    (3): SAGEConv(1024, 1024, aggr=mean)
    (4): LeakyReLU(negative_slope=0.01)
    (5): LayerNorm(1024, mode=graph)
    (6): SAGEConv(1024, 512, aggr=mean)
    (7): LeakyReLU(negative_slope=0.01)
    (8): LayerNorm(512, mode=graph)
  )
  (pred_layer): Linear(256, 1, bias=True)
)
Number of samples used: 30379
Number of samples used: 30379, with label: disease
Original Distrubution: [21657, 354, 4330, 72, 2888, 47]
Used Distrubution: [354, 354, 72, 72, 47, 47]
[[47  0]
 [47  0]]
[[47  0]
 [47  0]]
[[47  0]
 [47  0]]
[[47  0]
 [47  0]]
[[47  0]
 [47  0]]
[[47  0]
 [47  0]]
[[47  0]
 [47  0]]
[[47  0]
 [47  0]]
[[47  0]
 [47  0]]
[[47  0]
 [47  0]]
[[47  0]
 [47  0]]
[[47  0]
 [47  0]]
[[47  0]
 [47  0]]
[[47  0]
 [47  0]]
[[47  0]
 [47  0]]
[[47  0]
 [47  0]]
[[47  0]
 [47  0]]
[[47  0]
 [47  0]]
[[47  0]
 [47  0]]
[[47  0]
 [47  0]]
[[47  0]
 [47  0]]
[[47  0]
 [47  0]]
[[47  0]
 [47  0]]
[[47  0]
 [47  0]]
[[47  0]
 [47  0]]
[[47  0]
 [47  0]]
[[47  0]
 [47  0]]
[[47  0]
 [47  0]]
[[47  0]
 [47  0]]
[[47  0]
 [47  0]]
GNN(
  (fc): ModuleList(
    (0): Linear(1024, 1024, bias=True)
    (1): Linear(1024, 512, bias=True)
    (2): Linear(512, 512, bias=True)
    (3): Linear(512, 256, bias=True)
    (4): Linear(256, 256, bias=True)
    (5): Linear(256, 256, bias=True)
  )
  (layers): ModuleList(
    (0): SAGEConv(3, 1024, aggr=mean)
    (1): ELU(alpha=1.0)
  )
  (pred_layer): Linear(256, 1, bias=True)
)
Number of samples used: 30379
Number of samples used: 30379, with label: disease
Original Distrubution: [21657, 354, 4330, 72, 2888, 47]
Used Distrubution: [354, 354, 72, 72, 47, 47]
[[17  0]
 [15  0]]
[[20  0]
 [12  0]]
[[10  0]
 [20  0]]
[[16  0]
 [16  0]]
[[16  0]
 [16  0]]
[[15  0]
 [15  0]]
[[14  0]
 [18  0]]
[[17  0]
 [15  0]]
[[16  0]
 [14  0]]
[[13  0]
 [19  0]]
[[16  0]
…
[[14  0]
 [18  0]]
[[13  0]
 [19  0]]
[[20  0]
 [10  0]]
[[15  0]
 [17  0]]
[[18  0]
 [14  0]]
[[14  0]
 [16  0]]
[[17  0]
 [15  0]]
[[13  0]
 [19  0]]
[[17  0]
 [13  0]]
[[16  0]
 [16  0]]
[[17  0]
 [15  0]]
[[14  0]
 [16  0]]
[[14  0]
 [18  0]]
[[18  0]
 [14  0]]
[[15  0]
 [15  0]]
[[17  0]
 [15  0]]
[[14  0]
 [18  0]]
[[16  0]
 [14  0]]
[[14  0]
 [18  0]]
[[16  0]
 [16  0]]
[[17  0]
 [13  0]]
[[16  0]
 [16  0]]
[[17  0]
 [15  0]]
[[14  0]
 [16  0]]
[[14  0]
 [18  0]]
[[19  0]
 [13  0]]
[[14  0]
 [16  0]]
[[12  0]
 [20  0]]
[[18  0]
 [14  0]]
[[17  0]
 [13  0]]
GNN(
  (fc): ModuleList(
    (0): Linear(1024, 1024, bias=True)
    (1): Linear(1024, 512, bias=True)
    (2): Linear(512, 512, bias=True)
    (3): Linear(512, 256, bias=True)
    (4): Linear(256, 256, bias=True)
    (5): Linear(256, 256, bias=True)
  )
  (input_encoder): Sequential(
    (0): Linear(in_features=3, out_features=4, bias=True)
    (1): Identity()
  )
  (layers): ModuleList(
    (0): SAGEConv(4, 1024, aggr=mean)
    (1): ReLU()
    (2): LayerNorm(1024, mode=graph)
  )
  (pred_layer): Linear(256, 1, bias=True)
)
Number of samples used: 30379
Number of samples used: 30379, with label: disease
Original Distrubution: [21657, 354, 4330, 72, 2888, 47]
Used Distrubution: [354, 354, 72, 72, 47, 47]
[[33  0]
 [31  0]]
[[14  0]
 [16  0]]
[[31  0]
 [33  0]]
[[16  0]
 [14  0]]
[[29  0]
 [35  0]]
[[18  0]
 [12  0]]
[[33  0]
 [31  0]]
[[14  0]
 [16  0]]
[[34  0]
 [30  0]]
[[13  0]
 [17  0]]
[[29  0]
…
