GNN(
  (fc): ModuleList()
  (layers): ModuleList(
    (0): GCNConv(3, 512)
    (1): ReLU()
    (2): GCNConv(512, 256)
    (3): ReLU()
    (4): GCNConv(256, 256)
    (5): ReLU()
    (6): GCNConv(256, 128)
    (7): ReLU()
    (8): GCNConv(128, 64)
    (9): ReLU()
  )
  (pred_layer): Linear(64, 1, bias=True)
)
../../../../../../vol/aimspace/users/wyo/registered_meshes/original_meshes/
loading IDs
loading Features
Filtering IDs
Loading Data
Data Already Done!
Data Already Done!
Data Already Done!
Building Model
Starting Training
GNN(
  (fc): ModuleList(
    (0): Linear(256, 128, bias=True)
    (1): Linear(128, 64, bias=True)
  )
  (layers): ModuleList(
    (0): GATConv(3, 512, heads=1)
    (1): Tanh()
    (2): GATConv(512, 256, heads=1)
    (3): Tanh()
    (4): GATConv(256, 256, heads=1)
    (5): Tanh()
  )
  (pred_layer): Linear(64, 1, bias=True)
)
../../../../../../vol/aimspace/users/wyo/registered_meshes/original_meshes/
loading IDs
loading Features
Filtering IDs
Loading Data
Data Already Done!
Data Already Done!
Data Already Done!
Building Model
Starting Training
GNN(
  (fc): ModuleList(
    (0): Linear(128, 64, bias=True)
  )
  (layers): ModuleList(
    (0): SAGEConv(3, 512, aggr=mean)
    (1): Tanh()
    (2): SAGEConv(512, 256, aggr=mean)
    (3): Tanh()
    (4): SAGEConv(256, 256, aggr=mean)
    (5): Tanh()
    (6): SAGEConv(256, 128, aggr=mean)
    (7): Tanh()
  )
  (pred_layer): Linear(64, 1, bias=True)
)
../../../../../../vol/aimspace/users/wyo/registered_meshes/original_meshes/
loading IDs
loading Features
Filtering IDs
Loading Data
Data Already Done!
Data Already Done!
Data Already Done!
Building Model
Starting Training
GNN(
  (fc): ModuleList(
    (0): Linear(256, 128, bias=True)
    (1): Linear(128, 64, bias=True)
  )
  (input_encoder): Sequential(
    (0): Linear(in_features=3, out_features=1, bias=True)
    (1): Identity()
  )
  (layers): ModuleList(
    (0): GATConv(1, 512, heads=1)
    (1): ELU(alpha=1.0)
    (2): LayerNorm(512, mode=graph)
    (3): GATConv(512, 256, heads=1)
    (4): ELU(alpha=1.0)
    (5): LayerNorm(256, mode=graph)
    (6): GATConv(256, 256, heads=1)
    (7): ELU(alpha=1.0)
    (8): LayerNorm(256, mode=graph)
  )
  (pred_layer): Linear(64, 1, bias=True)
)
../../../../../../vol/aimspace/users/wyo/registered_meshes/original_meshes/
loading IDs
loading Features
Filtering IDs
Loading Data
Data Already Done!
Data Already Done!
Data Already Done!
Building Model
Starting Training
GNN(
  (fc): ModuleList()
  (layers): ModuleList(
    (0): GATConv(3, 512, heads=1)
    (1): ELU(alpha=1.0)
    (2): LayerNorm(512, mode=graph)
    (3): GATConv(512, 256, heads=1)
    (4): ELU(alpha=1.0)
    (5): LayerNorm(256, mode=graph)
    (6): GATConv(256, 256, heads=1)
    (7): ELU(alpha=1.0)
    (8): LayerNorm(256, mode=graph)
    (9): GATConv(256, 128, heads=1)
    (10): ELU(alpha=1.0)
    (11): LayerNorm(128, mode=graph)
    (12): GATConv(128, 64, heads=1)
    (13): ELU(alpha=1.0)
    (14): LayerNorm(64, mode=graph)
  )
  (pred_layer): Linear(64, 1, bias=True)
)
../../../../../../vol/aimspace/users/wyo/registered_meshes/original_meshes/
loading IDs
loading Features
Filtering IDs
Loading Data
Data Already Done!
Data Already Done!
Data Already Done!
Building Model
Starting Training
GNN(
  (fc): ModuleList(
    (0): Linear(128, 64, bias=True)
  )
  (input_encoder): Sequential(
    (0): Linear(in_features=3, out_features=8, bias=True)
    (1): Identity()
  )
  (layers): ModuleList(
    (0): SAGEConv(8, 512, aggr=mean)
    (1): LeakyReLU(negative_slope=0.01)
    (2): SAGEConv(512, 256, aggr=mean)
    (3): LeakyReLU(negative_slope=0.01)
    (4): SAGEConv(256, 256, aggr=mean)
    (5): LeakyReLU(negative_slope=0.01)
    (6): SAGEConv(256, 128, aggr=mean)
    (7): LeakyReLU(negative_slope=0.01)
  )
  (pred_layer): Linear(64, 1, bias=True)
)
../../../../../../vol/aimspace/users/wyo/registered_meshes/original_meshes/
loading IDs
loading Features
Filtering IDs
Loading Data
Data Already Done!
Data Already Done!
Data Already Done!
Building Model
Starting Training
GNN(
  (fc): ModuleList(
    (0): Linear(256, 128, bias=True)
    (1): Linear(128, 64, bias=True)
  )
  (layers): ModuleList(
    (0): SAGEConv(3, 512, aggr=mean)
    (1): Tanh()
    (2): SAGEConv(512, 256, aggr=mean)
    (3): Tanh()
    (4): SAGEConv(256, 256, aggr=mean)
    (5): Tanh()
  )
  (pred_layer): Linear(64, 1, bias=True)
)
../../../../../../vol/aimspace/users/wyo/registered_meshes/original_meshes/
loading IDs
loading Features
Filtering IDs
Loading Data
Data Already Done!
Data Already Done!
Data Already Done!
Building Model
Starting Training
GNN(
  (fc): ModuleList(
    (0): Linear(256, 256, bias=True)
    (1): Linear(256, 128, bias=True)
    (2): Linear(128, 64, bias=True)
  )
  (layers): ModuleList(
    (0): GATConv(3, 512, heads=1)
    (1): LeakyReLU(negative_slope=0.01)
    (2): GATConv(512, 256, heads=1)
    (3): LeakyReLU(negative_slope=0.01)
  )
  (pred_layer): Linear(64, 1, bias=True)
)
../../../../../../vol/aimspace/users/wyo/registered_meshes/original_meshes/
loading IDs
loading Features
Filtering IDs
Loading Data
Data Already Done!
Data Already Done!
Data Already Done!
Building Model
Starting Training
GNN(
  (fc): ModuleList(
    (0): Linear(128, 64, bias=True)
  )
  (layers): ModuleList(
    (0): GATConv(3, 512, heads=1)
    (1): ELU(alpha=1.0)
    (2): LayerNorm(512, mode=graph)
    (3): GATConv(512, 256, heads=1)
    (4): ELU(alpha=1.0)
    (5): LayerNorm(256, mode=graph)
    (6): GATConv(256, 256, heads=1)
    (7): ELU(alpha=1.0)
    (8): LayerNorm(256, mode=graph)
    (9): GATConv(256, 128, heads=1)
    (10): ELU(alpha=1.0)
    (11): LayerNorm(128, mode=graph)
  )
  (pred_layer): Linear(64, 1, bias=True)
)
../../../../../../vol/aimspace/users/wyo/registered_meshes/original_meshes/
loading IDs
loading Features
Filtering IDs
Loading Data
Data Already Done!
Data Already Done!
Data Already Done!
Building Model
Starting Training
GNN(
  (fc): ModuleList(
    (0): Linear(256, 128, bias=True)
    (1): Linear(128, 64, bias=True)
  )
  (layers): ModuleList(
    (0): GCNConv(3, 512)
    (1): Tanh()
    (2): LayerNorm(512, mode=graph)
    (3): GCNConv(512, 256)
    (4): Tanh()
    (5): LayerNorm(256, mode=graph)
    (6): GCNConv(256, 256)
    (7): Tanh()
    (8): LayerNorm(256, mode=graph)
  )
  (pred_layer): Linear(64, 1, bias=True)
)
../../../../../../vol/aimspace/users/wyo/registered_meshes/original_meshes/
loading IDs
loading Features
Filtering IDs
Loading Data
Data Already Done!
Data Already Done!
Data Already Done!
Building Model
Starting Training
GNN(
  (fc): ModuleList(
    (0): Linear(128, 64, bias=True)
  )
  (layers): ModuleList(
    (0): GATConv(3, 512, heads=1)
    (1): LeakyReLU(negative_slope=0.01)
    (2): GATConv(512, 256, heads=1)
    (3): LeakyReLU(negative_slope=0.01)
    (4): GATConv(256, 256, heads=1)
    (5): LeakyReLU(negative_slope=0.01)
    (6): GATConv(256, 128, heads=1)
    (7): LeakyReLU(negative_slope=0.01)
  )
  (pred_layer): Linear(64, 1, bias=True)
)
../../../../../../vol/aimspace/users/wyo/registered_meshes/original_meshes/
loading IDs
loading Features
Filtering IDs
Loading Data
Data Already Done!
Data Already Done!
Data Already Done!
Building Model
Starting Training
GNN(
  (fc): ModuleList(
    (0): Linear(256, 128, bias=True)
    (1): Linear(128, 64, bias=True)
  )
  (input_encoder): Sequential(
    (0): Linear(in_features=3, out_features=128, bias=True)
    (1): Identity()
  )
  (layers): ModuleList(
    (0): GCNConv(128, 512)
    (1): Tanh()
    (2): GCNConv(512, 256)
    (3): Tanh()
    (4): GCNConv(256, 256)
    (5): Tanh()
  )
  (pred_layer): Linear(64, 1, bias=True)
)
../../../../../../vol/aimspace/users/wyo/registered_meshes/original_meshes/
loading IDs
loading Features
Filtering IDs
Loading Data
Data Already Done!
Data Already Done!
Data Already Done!
Building Model
Starting Training
GNN(
  (fc): ModuleList(
    (0): Linear(128, 64, bias=True)
  )
  (layers): ModuleList(
    (0): GCNConv(3, 512)
    (1): LeakyReLU(negative_slope=0.01)
    (2): LayerNorm(512, mode=graph)
    (3): GCNConv(512, 256)
    (4): LeakyReLU(negative_slope=0.01)
    (5): LayerNorm(256, mode=graph)
    (6): GCNConv(256, 256)
    (7): LeakyReLU(negative_slope=0.01)
    (8): LayerNorm(256, mode=graph)
    (9): GCNConv(256, 128)
    (10): LeakyReLU(negative_slope=0.01)
    (11): LayerNorm(128, mode=graph)
  )
  (pred_layer): Linear(64, 1, bias=True)
)
../../../../../../vol/aimspace/users/wyo/registered_meshes/original_meshes/
loading IDs
loading Features
Filtering IDs
Loading Data
Data Already Done!
Data Already Done!
Data Already Done!
Building Model
Starting Training
GNN(
  (fc): ModuleList()
  (layers): ModuleList(
    (0): GATConv(3, 512, heads=1)
    (1): Tanh()
    (2): LayerNorm(512, mode=graph)
    (3): GATConv(512, 256, heads=1)
    (4): Tanh()
    (5): LayerNorm(256, mode=graph)
    (6): GATConv(256, 256, heads=1)
    (7): Tanh()
    (8): LayerNorm(256, mode=graph)
    (9): GATConv(256, 128, heads=1)
    (10): Tanh()
    (11): LayerNorm(128, mode=graph)
    (12): GATConv(128, 64, heads=1)
    (13): Tanh()
    (14): LayerNorm(64, mode=graph)
  )
  (pred_layer): Linear(64, 1, bias=True)
)
../../../../../../vol/aimspace/users/wyo/registered_meshes/original_meshes/
loading IDs
loading Features
Filtering IDs
Loading Data
Data Already Done!
Data Already Done!
Data Already Done!
Building Model
Starting Training
GNN(
  (fc): ModuleList(
    (0): Linear(128, 64, bias=True)
  )
  (layers): ModuleList(
    (0): GATConv(3, 512, heads=1)
    (1): LeakyReLU(negative_slope=0.01)
    (2): GATConv(512, 256, heads=1)
    (3): LeakyReLU(negative_slope=0.01)
    (4): GATConv(256, 256, heads=1)
    (5): LeakyReLU(negative_slope=0.01)
    (6): GATConv(256, 128, heads=1)
    (7): LeakyReLU(negative_slope=0.01)
  )
  (pred_layer): Linear(64, 1, bias=True)
)
../../../../../../vol/aimspace/users/wyo/registered_meshes/original_meshes/
loading IDs
loading Features
Filtering IDs
Loading Data
Data Already Done!
Data Already Done!
Data Already Done!
Building Model
Starting Training
GNN(
  (fc): ModuleList(
    (0): Linear(256, 128, bias=True)
    (1): Linear(128, 64, bias=True)
  )
  (input_encoder): Sequential(
    (0): Linear(in_features=3, out_features=128, bias=True)
    (1): Identity()
  )
  (layers): ModuleList(
    (0): GCNConv(128, 512)
    (1): LeakyReLU(negative_slope=0.01)
    (2): GCNConv(512, 256)
    (3): LeakyReLU(negative_slope=0.01)
    (4): GCNConv(256, 256)
    (5): LeakyReLU(negative_slope=0.01)
  )
  (pred_layer): Linear(64, 1, bias=True)
)
../../../../../../vol/aimspace/users/wyo/registered_meshes/original_meshes/
loading IDs
loading Features
Filtering IDs
Loading Data
Data Already Done!
Data Already Done!
Data Already Done!
Building Model
Starting Training
GNN(
  (fc): ModuleList()
  (input_encoder): Sequential(
    (0): Linear(in_features=3, out_features=128, bias=True)
    (1): Identity()
  )
  (layers): ModuleList(
    (0): SAGEConv(128, 512, aggr=mean)
    (1): ELU(alpha=1.0)
    (2): LayerNorm(512, mode=graph)
    (3): SAGEConv(512, 256, aggr=mean)
    (4): ELU(alpha=1.0)
    (5): LayerNorm(256, mode=graph)
    (6): SAGEConv(256, 256, aggr=mean)
    (7): ELU(alpha=1.0)
    (8): LayerNorm(256, mode=graph)
    (9): SAGEConv(256, 128, aggr=mean)
    (10): ELU(alpha=1.0)
    (11): LayerNorm(128, mode=graph)
    (12): SAGEConv(128, 64, aggr=mean)
    (13): ELU(alpha=1.0)
    (14): LayerNorm(64, mode=graph)
  )
  (pred_layer): Linear(64, 1, bias=True)
)
../../../../../../vol/aimspace/users/wyo/registered_meshes/original_meshes/
loading IDs
loading Features
Filtering IDs
Loading Data
Data Already Done!
Data Already Done!
Data Already Done!
Building Model
Starting Training
GNN(
  (fc): ModuleList()
  (layers): ModuleList(
    (0): GCNConv(3, 512)
    (1): Tanh()
    (2): LayerNorm(512, mode=graph)
    (3): GCNConv(512, 256)
    (4): Tanh()
    (5): LayerNorm(256, mode=graph)
    (6): GCNConv(256, 256)
    (7): Tanh()
    (8): LayerNorm(256, mode=graph)
    (9): GCNConv(256, 128)
    (10): Tanh()
    (11): LayerNorm(128, mode=graph)
    (12): GCNConv(128, 64)
    (13): Tanh()
    (14): LayerNorm(64, mode=graph)
  )
  (pred_layer): Linear(64, 1, bias=True)
)
../../../../../../vol/aimspace/users/wyo/registered_meshes/original_meshes/
loading IDs
loading Features
Filtering IDs
Loading Data
Data Already Done!
Data Already Done!
Data Already Done!
Building Model
Starting Training
GNN(
  (fc): ModuleList()
  (input_encoder): Sequential(
    (0): Linear(in_features=3, out_features=256, bias=True)
    (1): Identity()
  )
  (layers): ModuleList(
    (0): SAGEConv(256, 512, aggr=mean)
    (1): LeakyReLU(negative_slope=0.01)
    (2): SAGEConv(512, 256, aggr=mean)
    (3): LeakyReLU(negative_slope=0.01)
    (4): SAGEConv(256, 256, aggr=mean)
    (5): LeakyReLU(negative_slope=0.01)
    (6): SAGEConv(256, 128, aggr=mean)
    (7): LeakyReLU(negative_slope=0.01)
    (8): SAGEConv(128, 64, aggr=mean)
    (9): LeakyReLU(negative_slope=0.01)
  )
  (pred_layer): Linear(64, 1, bias=True)
)
../../../../../../vol/aimspace/users/wyo/registered_meshes/original_meshes/
loading IDs
loading Features
Filtering IDs
Loading Data
Data Already Done!
Data Already Done!
Data Already Done!
Building Model
Starting Training
GNN(
  (fc): ModuleList()
  (layers): ModuleList(
    (0): GCNConv(3, 512)
    (1): ReLU()
    (2): GCNConv(512, 256)
    (3): ReLU()
    (4): GCNConv(256, 256)
    (5): ReLU()
    (6): GCNConv(256, 128)
    (7): ReLU()
    (8): GCNConv(128, 64)
    (9): ReLU()
  )
  (pred_layer): Linear(64, 1, bias=True)
)
../../../../../../vol/aimspace/users/wyo/registered_meshes/original_meshes/
loading IDs
loading Features
Filtering IDs
Loading Data
Data Already Done!
Data Already Done!
Data Already Done!
Building Model
Starting Training
GNN(
  (fc): ModuleList(
    (0): Linear(128, 64, bias=True)
  )
  (input_encoder): Sequential(
    (0): Linear(in_features=3, out_features=256, bias=True)
    (1): Identity()
  )
  (layers): ModuleList(
    (0): GCNConv(256, 512)
    (1): LeakyReLU(negative_slope=0.01)
    (2): LayerNorm(512, mode=graph)
    (3): GCNConv(512, 256)
    (4): LeakyReLU(negative_slope=0.01)
    (5): LayerNorm(256, mode=graph)
    (6): GCNConv(256, 256)
    (7): LeakyReLU(negative_slope=0.01)
    (8): LayerNorm(256, mode=graph)
    (9): GCNConv(256, 128)
    (10): LeakyReLU(negative_slope=0.01)
    (11): LayerNorm(128, mode=graph)
  )
  (pred_layer): Linear(64, 1, bias=True)
)
../../../../../../vol/aimspace/users/wyo/registered_meshes/original_meshes/
loading IDs
loading Features
Filtering IDs
Loading Data
Data Already Done!
Data Already Done!
Data Already Done!
Building Model
Starting Training
GNN(
  (fc): ModuleList(
    (0): Linear(256, 256, bias=True)
    (1): Linear(256, 128, bias=True)
    (2): Linear(128, 64, bias=True)
  )
  (input_encoder): Sequential(
    (0): Linear(in_features=3, out_features=128, bias=True)
    (1): Identity()
  )
  (layers): ModuleList(
    (0): SAGEConv(128, 512, aggr=mean)
    (1): LeakyReLU(negative_slope=0.01)
    (2): LayerNorm(512, mode=graph)
    (3): SAGEConv(512, 256, aggr=mean)
    (4): LeakyReLU(negative_slope=0.01)
    (5): LayerNorm(256, mode=graph)
  )
  (pred_layer): Linear(64, 1, bias=True)
)
../../../../../../vol/aimspace/users/wyo/registered_meshes/original_meshes/
loading IDs
loading Features
Filtering IDs
Loading Data
Data Already Done!
Data Already Done!
Data Already Done!
Building Model
Starting Training
GNN(
  (fc): ModuleList(
    (0): Linear(128, 64, bias=True)
  )
  (layers): ModuleList(
    (0): SAGEConv(3, 512, aggr=mean)
    (1): ELU(alpha=1.0)
    (2): SAGEConv(512, 256, aggr=mean)
    (3): ELU(alpha=1.0)
    (4): SAGEConv(256, 256, aggr=mean)
    (5): ELU(alpha=1.0)
    (6): SAGEConv(256, 128, aggr=mean)
    (7): ELU(alpha=1.0)
  )
  (pred_layer): Linear(64, 1, bias=True)
)
../../../../../../vol/aimspace/users/wyo/registered_meshes/original_meshes/
loading IDs
loading Features
Filtering IDs
Loading Data
Data Already Done!
Data Already Done!
Data Already Done!
Building Model
Starting Training
GNN(
  (fc): ModuleList(
    (0): Linear(256, 256, bias=True)
    (1): Linear(256, 128, bias=True)
    (2): Linear(128, 64, bias=True)
  )
  (layers): ModuleList(
    (0): SAGEConv(3, 512, aggr=mean)
    (1): LeakyReLU(negative_slope=0.01)
    (2): SAGEConv(512, 256, aggr=mean)
    (3): LeakyReLU(negative_slope=0.01)
  )
  (pred_layer): Linear(64, 1, bias=True)
)
../../../../../../vol/aimspace/users/wyo/registered_meshes/original_meshes/
loading IDs
loading Features
Filtering IDs
Loading Data
Data Already Done!
Data Already Done!
Data Already Done!
Building Model
Starting Training
GNN(
  (fc): ModuleList(
    (0): Linear(256, 256, bias=True)
    (1): Linear(256, 128, bias=True)
    (2): Linear(128, 64, bias=True)
  )
  (input_encoder): Sequential(
    (0): Linear(in_features=3, out_features=256, bias=True)
    (1): Identity()
  )
  (layers): ModuleList(
    (0): GCNConv(256, 512)
    (1): ELU(alpha=1.0)
    (2): GCNConv(512, 256)
    (3): ELU(alpha=1.0)
  )
  (pred_layer): Linear(64, 1, bias=True)
)
../../../../../../vol/aimspace/users/wyo/registered_meshes/original_meshes/
loading IDs
loading Features
Filtering IDs
Loading Data
Data Already Done!
Data Already Done!
Data Already Done!
Building Model
Starting Training
